results/checkpoints/meta_policy.pt (torch, 576112 bytes, 8 tensors)

network.0.weight f4 [256, 12]
0	0x3e620008	0.22070324
1	0x3e755a64	0.23960263
2	0xbd8a80e2	-0.06762864
3	0x3e87c5b4	0.26518023
4	0xbd818916	-0.06324975
5	0x3d6e9998	0.058251947
6	0xbe0fea7d	-0.14054294
7	0x3e2d9a4c	0.16953391
8	0x3e824b24	0.25447953
9	0xbe58dce9	-0.2117802
10	0x3e8077fa	0.25091535
11	0x3d5d4cb8	0.054028243
12	0x3e5a64f4	0.21327573
13	0x3d202288	0.03909543
14	0x3e0e8952	0.13919571
15	0xbd26f234	-0.040758327
16	0x3e63e05c	0.22253555
17	0x3d2ec570	0.04266876
18	0xbe09ffdb	-0.13476507
19	0x3d96b294	0.0735828
20	0xbe0831fe	-0.1330032
21	0xbd0aaa40	-0.03385377
22	0xbdf01f9e	-0.117247805
23	0x3e44183c	0.1914987
24	0xbe695728	-0.22787154
25	0xbe0846b5	-0.13308223
26	0xbda6f11c	-0.08151457
27	0xbe31bcf7	-0.1735724
28	0x3cdf3320	0.027246058
29	0xbe91fb0a	-0.2851184
30	0x3e857b24	0.2607051
31	0xbe7b1b0b	-0.24522035
32	0x3e6436c0	0.2228651
33	0x3d44c6b8	0.048041075
34	0xbdbff7ac	-0.093734115
35	0x3e36ab06	0.17838678
36	0x3d3847b0	0.04499024
37	0x3e6ed630	0.23323894
38	0x3d0142d8	0.031557888
39	0xbdba7362	-0.09104039
40	0x3d9ed8fc	0.0775623
41	0xbda052b6	-0.07828276
42	0x3df8d054	0.121491104
43	0x3e83f5ea	0.25773555
44	0x3e2ae058	0.16687143
45	0xbe013acb	-0.12620084
46	0x3e2aa430	0.16664195
47	0x3d539098	0.051651567
48	0x3e161e24	0.14659935
49	0xbe342bf6	-0.17594895
50	0xbe924f64	-0.28576195
51	0xbde46b3e	-0.11153267
52	0xbe62bc09	-0.22142042
53	0x3e728dd4	0.23686916
54	0x3daa493c	0.083147496
55	0x3df4e2c4	0.119573146
56	0x3dbaf9c8	0.09129673
57	0xbba48dc0	-0.0050217807
58	0x3e675774	0.22591954
59	0xbe5207ba	-0.2051076
60	0x3c94e5f0	0.018176049
61	0xbe49c2db	-0.19703238
62	0x3db64cbc	0.08901355
63	0xbdcb99e2	-0.0994146
64	0x3db527c4	0.08845475
65	0xbd765884	-0.06014301
66	0x3e752bc8	0.23942482
67	0xbe2f3464	-0.17109829
68	0xbe304c18	-0.17216527
69	0xbe304ed1	-0.17217566
70	0x3e84f06c	0.25964677
71	0x3dc50530	0.0962013
72	0x3e8e38e6	0.27777785
73	0xbe73f454	-0.23823673
74	0xbe9299d7	-0.28632995
75	0xbe6744f4	-0.22584897
76	0xbe46d961	-0.19418861
77	0x3def7664	0.11692503
78	0x3dd3b264	0.1033676
79	0x3e759fc0	0.23986721
80	0xbe18a835	-0.14907916
81	0xbe49842b	-0.19679324
82	0x3e1cd736	0.15316471
83	0xbdeef7e8	-0.11668378
84	0x3e3368a0	0.1752038
85	0xbd8c4b32	-0.0685028
86	0x3e291944	0.16513544
87	0xbe65aca1	-0.22429134
88	0xbe152d18	-0.14567983
89	0x3db43eb8	0.08801025
90	0x3d79f898	0.061028093
91	0xbd96bbba	-0.07360025
92	0x3e30333a	0.17207041
93	0x3e48f430	0.196244
94	0xbe565d19	-0.20933951
95	0xbe1dd02f	-0.15411447
96	0x3e87561c	0.26432884
97	0xbdc77e0a	-0.09740837
98	0xbdd197aa	-0.10234006
99	0xbe8f0319	-0.2793205
100	0xbe294882	-0.16531566
101	0x3d93af84	0.07211211
102	0xbd1c1208	-0.038103133
103	0xbe569306	-0.20954522
104	0x3bdde240	0.006771356
105	0xbe49ebd2	-0.19718865
106	0xbe7ac9f4	-0.24491102
107	0xbe22c718	-0.1589626
108	0xbe815b99	-0.25265196
109	0xbe3c38ce	-0.18381044
110	0x3e93be6e	0.28856224
111	0x3d5f5408	0.054523498
112	0x3db62fa4	0.088958055
113	0xbe89da30	-0.26924276
114	0xbe422500	-0.18959427
115	0xbdc4c95e	-0.0960872
116	0x3d38e530	0.045140445
117	0xbe820dc8	-0.2540114
118	0xbdfebc2a	-0.12438233
119	0xbe30f7eb	-0.17282073
120	0x3a51b600	0.00079998374
121	0xbddbfd6a	-0.10741694
122	0xbca3df60	-0.020003974
123	0xbe484f42	-0.19561484
124	0xbe4ae694	-0.19814521
125	0xbe2c749c	-0.16841358
126	0xbdca5e58	-0.09881276
127	0xbe695066	-0.22784576
128	0x3e77dac0	0.2420454
129	0xbd6aaaa0	-0.057291627
130	0x3e7e560c	0.24837512
131	0x3db8359c	0.089946
132	0xbe7a50e6	-0.24444923
133	0x3e4c9162	0.19977334
134	0xbda2aade	-0.079427466
135	0xbde29ffa	-0.11065669
136	0xbe755f22	-0.23962072
137	0xbe92f048	-0.28698945
138	0x3da92688	0.082593024
139	0xbd81253e	-0.063059315
140	0x3de62ba0	0.112387896
141	0xbe729742	-0.23690513
142	0x3e5b76ec	0.21432084
143	0xbe58fd1e	-0.21190307
144	0xbd4c2bd8	-0.0498465
145	0x3d76f868	0.060295492
146	0x3e189b12	0.14902905
147	0x3e6ea4c4	0.2330504
148	0x3e86a42c	0.26297128
149	0xbe6a63f3	-0.2288969
150	0x3d94c990	0.072650075
151	0xbdfe4b18	-0.12416667
152	0xbd019318	-0.03163442
153	0xbe5d4194	-0.21607047
154	0x3e86a05e	0.26294225
155	0xbe58f54e	-0.21187326
156	0x3e1dfc4e	0.15428278
157	0x3dcfc600	0.101451874
158	0x3dc01db8	0.093806684
159	0xbe1fd11b	-0.15607111
160	0x3e865834	0.2623917
161	0x3d81eafc	0.06343648
162	0x3d181b10	0.037135184
163	0xbe82403d	-0.25439635
164	0x3df82e88	0.1211825
165	0xbd3162e8	-0.043307215
166	0xbe076c4e	-0.13224909
167	0x3e7de850	0.24795651
168	0x3d83cf10	0.064359784
169	0xbe238ce4	-0.15971714
170	0xbe159dc9	-0.14610972
171	0xbc61de40	-0.013785899
172	0x3e250db0	0.16118503
173	0xbd9712c4	-0.07376626
174	0xbe28a9f1	-0.16471078
175	0xbdca745a	-0.098854735
176	0xbe5cd67b	-0.21566193
177	0x3dd2d7f0	0.10295093
178	0x3e64cf14	0.22344619
179	0xbe8b257e	-0.27177042
180	0x3d894ee4	0.067045
181	0x3e18b4ce	0.14912722
182	0x3d566800	0.052345276
183	0xbdd28b14	-0.10280433
184	0x3e1a49b0	0.15067172
185	0x3e1b57ec	0.15170258
186	0x3ddd117c	0.107943505
187	0xbd4fc67c	-0.0507264
188	0xbd9c8d62	-0.07644154
189	0x3cfcfdc0	0.030882716
190	0xbd50e0d0	-0.050995648
191	0xbdb02e22	-0.08602549
192	0x3e3cf3a2	0.18452314
193	0x3e7e0a98	0.24808729
194	0xbcea1c90	-0.028578073
195	0xbd845e8c	-0.06463346
196	0x3b8a0880	0.004212439
197	0xbc8d3320	-0.017236292
198	0x3d8e21fc	0.06940076
199	0x3da5ad0c	0.08089647
200	0xbe863deb	-0.26219115
201	0xbdda2d76	-0.10653202
202	0x3e78efb0	0.24310184
203	0x3de64eb8	0.11245483
204	0xbc6b3de0	-0.014358014
205	0xbe323890	-0.1740439
206	0xbe34da04	-0.17661291
207	0xbe846555	-0.2585856
208	0xbdc0b60e	-0.09409724
209	0x3dc7a728	0.097486794
210	0x3e3c7bac	0.18406552
211	0x3e087ab2	0.13328055
212	0xbe82a5fe	-0.25517267
213	0xbe31c3c6	-0.17359838
214	0xbd3a9ac0	-0.045557737
215	0x3e8ef9d2	0.27924973
216	0x3d2b0b80	0.041759014
217	0xbd991af0	-0.07475841
218	0x3df49758	0.11942929
219	0xbde12e02	-0.109951034
220	0xbe3f54b8	-0.18684661
221	0x3e57c1d2	0.2107003
222	0xbe06694f	-0.1312611
223	0xbd6d08d8	-0.057869762
224	0xbe9308a2	-0.28717524
225	0x3e45d6b0	0.19320178
226	0x3e5ff598	0.2187103
227	0x3dd776d4	0.105207115
228	0xbe4e1dd8	-0.20128572
229	0xbe91df12	-0.28490502
230	0xbe701533	-0.23445587
231	0x3e5c6e74	0.2152651
232	0x3e0debbe	0.1385946
233	0x3e78c064	0.24292141
234	0x3e1adb90	0.15122819
235	0x3d95a138	0.07306141
236	0xbb394380	-0.0028268993
237	0xbe60cee1	-0.21953918
238	0xbe7d43c4	-0.24732882
239	0xbe8a3f00	-0.2700119
240	0x3df2047c	0.118172616
241	0xbe1121bc	-0.14173025
242	0xbd6df6b8	-0.058096617
243	0xbe2a1f0c	-0.16613406
244	0xbd5776ac	-0.05260341
245	0xbe500e52	-0.20317963
246	0xbe4126e0	-0.18862486
247	0x3dc41c10	0.09575665
248	0xbdafb45a	-0.08579321
249	0x3e367d1c	0.17821163
250	0xbdbdaa0e	-0.09260951
251	0xbe58d84c	-0.2117626
252	0xbd509fac	-0.050933525
253	0xbe0f4aff	-0.13993452
254	0xbdb4dfec	-0.08831772
255	0xbe8cb4e0	-0.27481747

network.0.bias f4 [256]
0	0xbd94b524	-0.07261112
1	0x3cd4d3d0	0.025979906
2	0xbd9e3dd2	-0.07726635
3	0xbe90b6ee	-0.28264564
4	0xbcf4eb90	-0.029897481
5	0x3e103b0c	0.14085025
6	0xbd0991f0	-0.033586442
7	0xbe118f12	-0.14214733
8	0x3c15dca0	0.009146839
9	0x3d57c680	0.05267954
10	0xbda4f4b8	-0.08054489
11	0xbe653c56	-0.22386298
12	0xbe1e7c58	-0.15477121
13	0xbd40c5bc	-0.047063574
14	0x3dd4eb38	0.10396427
15	0x3e836fa4	0.25671113
16	0x3baf8dc0	0.005357474
17	0x3dd3ad48	0.10335785
18	0x3e2a14e6	0.16609535
19	0xbe00e5fa	-0.12587729
20	0xbdc42c20	-0.09578729
21	0x3e441350	0.19147992
22	0x3e53a604	0.20668799
23	0x3d8c1778	0.06840414
24	0xbe646fe4	-0.22308308
25	0x3e27c7ca	0.16384807
26	0xbe745090	-0.23858857
27	0x3e13bfc8	0.14428627
28	0x3d0c2208	0.034212142
29	0x3dbef7ec	0.09324631
30	0xbe9011c2	-0.28138548
31	0xbdcfda88	-0.101491034
32	0x3dfb155c	0.12259933
33	0x3e638594	0.22218925
34	0xbda941c2	-0.082644954
35	0x3e83cd56	0.25742596
36	0xbd83eed8	-0.0644204
37	0xbe324ac7	-0.17411338
38	0xbe000254	-0.12500888
39	0x3c9327f0	0.01796338
40	0xbd52277c	-0.051307186
41	0x3e0f12bc	0.1397199
42	0xbe2397e5	-0.15975912
43	0xbda82e4e	-0.08211957
44	0xbe92792f	-0.2860808
45	0x3e7148c4	0.23562914
46	0xbd5e7c80	-0.05431795
47	0xbe690716	-0.2275661
48	0xbc6439a0	-0.0139297545
49	0xba0a2200	-0.00052693486
50	0x3da431dc	0.080173224
51	0xbd01c868	-0.031685263
52	0x3e39f402	0.18159488
53	0xbdcbfaf8	-0.09959978
54	0xbdb0f454	-0.08640352
55	0xbd8c64cc	-0.06855163
56	0x3d5318a0	0.051537156
57	0x3e6cd7e8	0.23129237
58	0xbc59a0c0	-0.013282955
59	0x3e63721c	0.22211498
60	0x3e6835cc	0.22676772
61	0xbe19e7e6	-0.15029868
62	0xbccb2fc0	-0.024803042
63	0xbe0b8acf	-0.1362717
64	0x3df5ed38	0.120081365
65	0xbdcfd998	-0.101489246
66	0x3db458f8	0.08806032
67	0x3c8d4920	0.017246783
68	0xbe420da9	-0.18950523
69	0xbe46bb7e	-0.1940746
70	0xbe905c8f	-0.28195617
71	0xbe255ae3	-0.16147952
72	0x3da527f8	0.08064264
73	0x3c901440	0.017587781
74	0x3e5e52e8	0.21711314
75	0xbe81f6d2	-0.2538362
76	0xbc0a3580	-0.008435607
77	0xbe8486be	-0.2588405
78	0x3add7c00	0.0016897917
79	0x3dd765f4	0.10517493
80	0xbe8495a2	-0.2589541
81	0x3e82880a	0.25494415
82	0xbdb79f9c	-0.0896599
83	0x3e82f526	0.25577658
84	0xbd467828	-0.048454434
85	0x3e27b33e	0.16376969
86	0x3e865cf0	0.2624278
87	0xbdd73e20	-0.10509896
88	0xbd8fb6e8	-0.070173085
89	0x3e1b0d7a	0.1514186
90	0xbe7d133e	-0.24714372
91	0x3e2ef9d4	0.1708749
92	0xbe39ac21	-0.18132068
93	0x3e8945d4	0.26811087
94	0xbe41ba6a	-0.18918768
95	0xbdf349ce	-0.118793115
96	0x3e5c932c	0.21540517
97	0xbe00b3a8	-0.12568533
98	0x3e7d6074	0.24743825
99	0x3e4b6180	0.19861412
100	0x3e8717a8	0.26385236
101	0xbe8f42f2	-0.27980763
102	0x3b540980	0.0032354295
103	0xbdc274b6	-0.09494917
104	0x3d8cd3dc	0.068763465
105	0xbe5f3215	-0.21796449
106	0x3df26d38	0.11837238
107	0xbc600fc0	-0.01367563
108	0xbe0bba75	-0.13645346
109	0xbe84f681	-0.25969318
110	0x3e1a9ee6	0.15099677
111	0xbdd5f5f6	-0.10447304
112	0x3e5a1e64	0.21300656
113	0x3d527c90	0.051388323
114	0x3db3cf50	0.08779776
115	0xbd335478	-0.043781728
116	0xbd23cae4	-0.039988413
117	0xbdc8d6ae	-0.09806572
118	0xbe7ff693	-0.24996404
119	0x3e39d840	0.18148899
120	0xbe3a274e	-0.18179056
121	0x3e2c49ea	0.16825071
122	0xbdc76758	-0.09736508
123	0x3e392fb4	0.18084604
124	0x3e7d56b0	0.247401
125	0xbe34caf6	-0.17655548
126	0x3e741654	0.23836643
127	0x3be68c00	0.0070357323
128	0xbe61d210	-0.22052789
129	0x3df15664	0.11784056
130	0x3e2761d8	0.16345918
131	0x3e8249f6	0.25447053
132	0xbe8cb206	-0.2747957
133	0x3e857598	0.2606628
134	0x3e601958	0.21884668
135	0x3e9166d0	0.28398752
136	0x3e211b0a	0.15732971
137	0xbe0fb257	-0.14032875
138	0x3e603f88	0.21899235
139	0x3e871416	0.26382512
140	0xbde20f44	-0.11038068
141	0xbd414718	-0.04718694
142	0x3e6751b4	0.22589761
143	0x3e6df49c	0.23237842
144	0x3e434588	0.19069493
145	0x3e6278a4	0.22116333
146	0xbe17e8fa	-0.14834967
147	0xbd4bfbec	-0.0498008
148	0xbdec313a	-0.11532827
149	0x3e19a2e6	0.15003547
150	0x3d935604	0.071941406
151	0xbe6456f6	-0.22298798
152	0xbd148660	-0.036260962
153	0xbe710d1e	-0.2354016
154	0xbe8b1940	-0.27167702
155	0x3e86bd78	0.26316428
156	0xbe14b1d7	-0.14520966
157	0x3e03efc2	0.12884429
158	0xbd83a628	-0.06428176
159	0xbd6f7018	-0.05845651
160	0xb9438000	-0.00018644333
161	0x3e668c98	0.2251457
162	0xbd239208	-0.039934188
163	0x3e749a04	0.23886877
164	0x3e2cf5b6	0.16890606
165	0x3e4ac956	0.19803366
166	0xbe860c1b	-0.2618111
167	0xbe0a3906	-0.13498315
168	0xbe70d5d1	-0.23519064
169	0xbd7b2194	-0.06131132
170	0xbd74e75c	-0.059790954
171	0x3d704558	0.05865988
172	0x3e846d0c	0.25864446
173	0x3e04b2a6	0.12958774
174	0xbe4db2a6	-0.2008768
175	0xbe3962bc	-0.1810407
176	0x3e5f3634	0.2179802
177	0x3ceb6790	0.028735906
178	0x3da704cc	0.08155212
179	0xbe1a9c69	-0.15098728
180	0xbd1031c0	-0.035203695
181	0x3da851c8	0.082187235
182	0xbe41fb7e	-0.18943593
183	0x3e40edcc	0.18840712
184	0x3e134fea	0.14385954
185	0xbe2c633d	-0.16834731
186	0xbdf2714c	-0.11838016
187	0xbd8afe46	-0.0678678
188	0x3d3803b8	0.04492542
189	0xbdd8ddce	-0.10589181
190	0x3e8d63e4	0.27615273
191	0xbe8e5d2b	-0.27805457
192	0xbe27132a	-0.16315904
193	0xbe336cc5	-0.17521961
194	0x3d9fd9c8	0.0780521
195	0x3d27caf0	0.04096502
196	0xbda877cc	-0.082259744
197	0x3e7c48f8	0.2463721
198	0xbe7f2e35	-0.2491997
199	0x3dd05ef0	0.10174358
200	0xbe22a7fd	-0.15884395
201	0xbd869f72	-0.065733805
202	0xbe8e5544	-0.27799428
203	0xbe5cab83	-0.21549802
204	0xbe7acdee	-0.24492618
205	0x3e00f6ca	0.12594143
206	0xbdde0080	-0.10839939
207	0x3e1aa15c	0.15100616
208	0xbe2033b0	-0.15644717
209	0xbd927ae6	-0.07152347
210	0x3d0f20a8	0.034943253
211	0x3e77b17c	0.24188799
212	0xbd9f5696	-0.07780187
213	0x3e2b5e22	0.16735128
214	0x3da318e8	0.07963735
215	0x3e33c966	0.17557296
216	0x3e3abc2e	0.18235847
217	0x3defebcc	0.117148966
218	0xbdb246da	-0.0870492
219	0xbda5ee90	-0.08102143
220	0x3de62854	0.11238161
221	0x3e211dcc	0.15734023
222	0xbc7c7020	-0.015407592
223	0x3e142dbe	0.14470574
224	0xbe31d732	-0.17367247
225	0x3e269e86	0.1627141
226	0xbd111988	-0.03542474
227	0xbe4b6d08	-0.19865811
228	0xbe0fa103	-0.14026265
229	0xbe61c072	-0.22046068
230	0x3d6e8368	0.058230788
231	0xbe2f4f8c	-0.17120188
232	0xbda94ccc	-0.08266601
233	0xbc942b10	-0.01808694
234	0xbe345d94	-0.17613822
235	0x3bf2e480	0.007412493
236	0xbd161028	-0.0366365
237	0x3dbb4290	0.09143555
238	0x3e558bcc	0.2085411
239	0xbe327256	-0.17426428
240	0x3e219eba	0.15783206
241	0xbbc869c0	-0.006116122
242	0xbe28f41a	-0.16499367
243	0xbe060f6a	-0.13091817
244	0x3d967c08	0.07347876
245	0x3d7631c0	0.06010604
246	0xbc18c4e0	-0.009324282
247	0xbe132a30	-0.14371562
248	0x3e15124e	0.14557764
249	0x3d2f6f88	0.042830974
250	0xbe8faebe	-0.28063005
251	0xbd50f6c8	-0.0510166
252	0xbda066d8	-0.07832116
253	0xbdfc4606	-0.123180434
254	0xbe23f873	-0.16012745
255	0xbe6fcfd6	-0.23419127

network.3.weight f4 [256, 256]
0	0x3d7c22aa	0.061556496
1	0xbd69d58a	-0.057088412
2	0x3d6df8c8	0.058098584
3	0xbd493e1a	-0.04913149
4	0xbc7870b8	-0.015163593
5	0xbcd1bfd4	-0.025604166
6	0xbd090624	-0.03345312
7	0x3cb608c0	0.02222097
8	0x3d146052	0.03622467
9	0xbd282ab6	-0.041056357
10	0xbcee76bc	-0.029109351
11	0x3d02ab58	0.031901687
12	0xbbf78de0	-0.0075547546
13	0x3c7964e8	0.015221812
14	0x3d05d9ae	0.0326783
15	0xbcbd405c	-0.023101978
16	0xbd0e12c6	-0.034685872
17	0x3cbc7734	0.02300606
18	0xbcbb7dec	-0.022887193
19	0xbd2a677c	-0.041602597
20	0xbd012162	-0.031525977
21	0xbcee0fe8	-0.029060319
22	0x3d7ee766	0.062232397
23	0x3c44f068	0.012020208
24	0x3cdc8120	0.02691704
25	0x3c098c70	0.008395299
26	0xbd2c94d8	-0.042134136
27	0x3d38bd44	0.045102373
28	0xbc1f2df8	-0.00971555
29	0xbc849298	-0.016183183
30	0x3d50a102	0.0509348
31	0xbd0268bc	-0.031838164
32	0x3c4fee88	0.012691148
33	0xbd59c666	-0.053167723
34	0x3d032e26	0.032026432
35	0x3ccb5f44	0.0248257
36	0xbd528202	-0.051393516
37	0x3d0ee212	0.034883566
38	0x3be16180	0.006878078
39	0xbd04307e	-0.03227281
40	0x3d5a4630	0.053289592
41	0x3cdbe3f0	0.026842088
42	0x3cb3ecd4	0.021963514
43	0xbcbe2b80	-0.023214102
44	0xbd0c5eba	-0.034270026
45	0xbd09bf44	-0.03362967
46	0x3cc05c34	0.023481466
47	0x3c89ed00	0.016836643
48	0xbd193726	-0.03740611
49	0x3d68f29e	0.056872003
50	0x3d15266a	0.036413588
51	0xbcc37c4c	-0.02386298
52	0x3d0472f8	0.032336205
53	0xbcd90934	-0.026493646
54	0x3ca0ae08	0.019614235
55	0x3d5513c4	0.052020803
56	0xbd6270b0	-0.05528325
57	0xbcfe91ec	-0.03107544
58	0xbb677d00	-0.0035322309
59	0x3c18b460	0.0093203485
60	0xbd528718	-0.051398367
61	0xbd286c3e	-0.041118853
62	0xbbc42790	-0.0059861615
63	0xbc13a360	-0.00901112
64	0x3c5cdf08	0.013480909
65	0x3c021e18	0.007941745
66	0x3c5210c0	0.012821376
67	0x3b87c4e0	0.0041433424
68	0x3beb6430	0.007183574
69	0xbb6c6a80	-0.003607422
70	0x3cb7deec	0.022445165
71	0x3d2eb816	0.042656027
72	0xbcff8384	-0.031190641
73	0xbd049f02	-0.032378204
74	0x3ce0b97c	0.027432196
75	0xbd391f4a	-0.045195855
76	0x3d265d18	0.040616125
77	0x3cec8878	0.028873667
78	0x3c141a68	0.009039499
79	0xbcde47b4	-0.0271338
80	0x3af5a440	0.0018740967
81	0xbd4a6848	-0.049415857
82	0xbd66518a	-0.056230105
83	0x3d71137c	0.058856472
84	0xbd659cf6	-0.056057893
85	0xbd546ac2	-0.051859625
86	0xbcc6e290	-0.024277955
87	0x3b660540	0.0035098344
88	0x3c6a87e8	0.014314629
89	0xbcfc4dfc	-0.030798905
90	0xbbc6bc50	-0.006064929
91	0xbc64ab50	-0.01395686
92	0x3d5633a4	0.052295342
93	0x3d5e323c	0.054247126
94	0x3cd26fc8	0.025688067
95	0xb9c9fc00	-0.00038525462
96	0x3d3ffba4	0.046870843
97	0xbd4eb0be	-0.050461523
98	0x3cd5ec24	0.026113577
99	0xbd14cd50	-0.036328614
100	0x3d47a502	0.048741348
101	0xbd624d06	-0.055249237
102	0x3cbe3c28	0.023222044
103	0xbd527a9e	-0.051386468
104	0x3d1569f8	0.036478013
105	0x3c3b3cf0	0.011428103
106	0x3d5ba86e	0.053627424
107	0xbd411464	-0.047138587
108	0x3d24c390	0.040225565
109	0xbd2ad854	-0.041710213
110	0xbd0a2f5c	-0.03373657
111	0x3cc2be20	0.0237723
112	0xbc2c5cf0	-0.010520205
113	0xbd4a1ed8	-0.04934582
114	0xbd59d570	-0.053182065
115	0xbc84ed94	-0.016226567
116	0x3c8dc2f4	0.017304875
117	0x3d60dbda	0.054897167
118	0x3d3c46e4	0.045966044
119	0x3a864180	0.0010242909
120	0xbd1d0762	-0.03833712
121	0xbd643ce2	-0.055722125
122	0x3d64b5f6	0.055837594
123	0xbd0ebb40	-0.034846544
124	0xbc3417e8	-0.010992028
125	0xbd4e91fa	-0.050432183
126	0xbd30f334	-0.043200687
127	0x3c46b138	0.012127213
128	0xbc7d2780	-0.015451312
129	0x3bea8640	0.007157117
130	0xb9fa9a00	-0.00047798455
131	0x3b50af60	0.0031842813
132	0xbc4ae668	-0.012384035
133	0xbb1e6480	-0.002416879
134	0x3cde8ccc	0.027166747
135	0x3d3b0346	0.04565742
136	0x3d5860f6	0.052826844
137	0xbd50dcb6	-0.050991736
138	0xbd586634	-0.052831843
139	0xbc190a78	-0.009340875
140	0xbb9c3c20	-0.0047679096
141	0x3d0d4bc8	0.0344961
142	0x3d70fce6	0.058834933
143	0x3c837af8	0.016049847
144	0xbd35d386	-0.044391178
145	0xbbe7d010	-0.0070743635
146	0x3d258ff8	0.040420502
147	0x3cbce788	0.023059621
148	0xbd350bf4	-0.044200853
149	0x3b6f1340	0.003647998
150	0xbd772f4a	-0.060347833
151	0xbcce50ac	-0.025184952
152	0x3d330c1a	0.043712713
153	0xbcde18e8	-0.027111486
154	0x3d1c4dc8	0.038160115
155	0xbd50d008	-0.050979644
156	0x3d6254aa	0.055256523
157	0x3cf43a10	0.029812843
158	0x3d25e3fa	0.04050062
159	0x3c8bd2d8	0.017068312
160	0x3b911810	0.0044279173
161	0xbcfc270c	-0.030780338
162	0xbd0d424c	-0.034487054
163	0xbd2fccd8	-0.042919964
164	0x3d5391ea	0.051652826
165	0xbcb1b46c	-0.021692477
166	0x3ac79380	0.0015226454
167	0xbd70aad8	-0.05875668
168	0x3c896a24	0.016774245
169	0xbcae88a8	-0.021305397
170	0xbd4cc18e	-0.049989276
171	0x3bfd7770	0.0077351853
172	0xbd6bd4b4	-0.057575896
173	0xbbc9c7c0	-0.0061578453
174	0xbd510f80	-0.051040173
175	0x3d21d818	0.039512724
176	0xbd4b4e58	-0.04963526
177	0x3c273ec8	0.010207839
178	0x3cfd83c4	0.03094662
179	0xbd4c8c28	-0.04993835
180	0x3d25b9a8	0.04046026
181	0x3d507d68	0.050900847
182	0xbd1ced5e	-0.03831231
183	0x3bab7e40	0.005233556
184	0x3c9b42b0	0.018952698
185	0x3d54053e	0.05176281
186	0x3d480146	0.04882934
187	0xbd56bc60	-0.052425742
188	0xbd50a83c	-0.05094169
189	0xbd625c20	-0.05526364
190	0xbce3b514	-0.027796306
191	0xbc4eb3b0	-0.012616083
192	0xbcb7b508	-0.02242519
193	0x3d28af28	0.041182667
194	0xbd306d9a	-0.043073274
195	0xbd4c5202	-0.049882896
196	0xbd481e94	-0.048857287
197	0xbd171b18	-0.036891073
198	0x3d7abe32	0.06121654
199	0x3c014fe8	0.007892586
200	0xbc3349e8	-0.010942914
201	0xbc96777c	-0.018367521
202	0xbd44139a	-0.047870256
203	0xbcadb644	-0.021205075
204	0x3d06ddf6	0.032926522
205	0x3d2d04a2	0.042240746
206	0x3d38a5ce	0.04508
207	0x3b91ce20	0.004449621
208	0xbd0b9230	-0.034074962
209	0xbd172248	-0.036897928
210	0x3d78cb66	0.06074085
211	0xbd6710c8	-0.05641249
212	0x3c726d28	0.014796533
213	0xbbc15d70	-0.005901031
214	0x3d6db028	0.058029324
215	0x3d15f452	0.036609955
216	0xbc8159d0	-0.015789896
217	0xbd546b20	-0.051859975
218	0x3c068340	0.008210003
219	0xbd330e82	-0.043715008
220	0xbbd7ff00	-0.0065916777
221	0x3c8031dc	0.015648775
222	0x3cfa0620	0.030520499
223	0xbc8a7960	-0.01690358
224	0xbd2ccf00	-0.042189598
225	0xbd5a06fe	-0.053229325
226	0xbd727b8a	-0.059199847
227	0x3c007178	0.007839553
228	0xbd1bcfc8	-0.038039953
229	0x3b148c00	0.0022666454
230	0xbcf28fdc	-0.029609613
231	0xbd2d3e1e	-0.042295568
232	0x3d2c9e72	0.042143293
233	0x3d10dffe	0.035369866
234	0x3d33bf76	0.043883763
235	0x3d7591ce	0.059953503
236	0xbd3939d8	-0.04522118
237	0xbd0845ca	-0.03326968
238	0xbd40ba6c	-0.047052786
239	0x3d2be5ec	0.041967317
240	0x3d16d642	0.036825426
241	0x3d4f860e	0.050664954
242	0xbd33208c	-0.04373221
243	0xbd094a56	-0.033518158
244	0x3d79918e	0.060929827
245	0xbd4b48a0	-0.049629807
246	0xbd2a7f64	-0.041625395
247	0x3cbc7e40	0.02300942
248	0xbd5fc88a	-0.05463461
249	0xbc90c2a8	-0.017670944
250	0x3cd98d5c	0.026556663
251	0x3d51b958	0.05120215
252	0xbbe862e0	-0.007091865
253	0xbd628b78	-0.05530879
254	0x3d10eb3e	0.035380594
255	0x3d7f3756	0.06230863

network.3.bias f4 [256]
0	0x3ba281e0	0.00495933
1	0x3bbfef30	0.005857371
2	0x3beee220	0.00729014
3	0xbcefbc28	-0.029264525
4	0xbccd518c	-0.025063299
5	0x3d3a0c22	0.045421727
6	0x3d760fa4	0.06007351
7	0x3ca97ea0	0.020690262
8	0xbbe87e90	-0.0070951656
9	0x3d7383e2	0.059451945
10	0xbc9cb2ac	-0.019128166
11	0x3d2d625e	0.04233014
12	0x3d340b1a	0.0439559
13	0xbd19e4dc	-0.037571773
14	0xbcd43b14	-0.025907077
15	0xbd4c5148	-0.049882203
16	0x3cd34454	0.025789417
17	0x3c818874	0.015812136
18	0x3cf37238	0.02971755
19	0x3bb23140	0.005438
20	0x3b37b320	0.002803035
21	0x3d47c2c6	0.048769735
22	0xbcf8a7d4	-0.030353464
23	0x3d355f0c	0.044280097
24	0xbceb6cd8	-0.028738424
25	0x3d69c1f2	0.057069726
26	0xbcb73e68	-0.022368625
27	0xbc9028b4	-0.017597534
28	0xbd374fbc	-0.044753775
29	0x3bb6d430	0.005579494
30	0xbaa41fc0	-0.0012521669
31	0xbd32fbda	-0.043697216
32	0xbd223ba4	-0.03960766
33	0x3bb86530	0.005627297
34	0xbc96ebd4	-0.018422998
35	0x3cb530d0	0.022118002
36	0x3cb74c40	0.022375226
37	0xbc7b7f78	-0.015350215
38	0xbd1fb732	-0.038993068
39	0xbca53da4	-0.020170994
40	0x3d281e8e	0.041044764
41	0x3c5bb520	0.013409883
42	0xbbf64090	-0.0075150207
43	0xbb499300	-0.0030757785
44	0x3d526b3a	0.05137179
45	0x3cc6114c	0.02417817
46	0x3d792a66	0.06083145
47	0xbd6656d4	-0.05623515
48	0x3bdb2240	0.0066874325
49	0xbd000d0c	-0.031262442
50	0x3d097392	0.033557482
51	0x3cd66580	0.026171446
52	0x3d6c0d2e	0.057629757
53	0x3d452ec6	0.04814031
54	0x3cd145dc	0.025546007
55	0xbbf8f310	-0.0075973347
56	0x3d64ac62	0.05582846
57	0x3b07db60	0.0020730123
58	0xbcb738d4	-0.022365965
59	0x3d2d1b26	0.04226222
60	0x3d2d7c5c	0.042354926
61	0x3d7e9422	0.06215299
62	0x3d4d93c8	0.050189763
63	0xbcaebe1c	-0.021330886
64	0x3d6fb632	0.058523364
65	0xbd52f026	-0.051498555
66	0x3d6f48ee	0.05841916
67	0xbd651e0c	-0.055936858
68	0x3b9d7460	0.0048051327
69	0x3c9654a8	0.018350914
70	0x3cf060b8	0.029342994
71	0x3d6cbca8	0.057797104
72	0xbcb90b58	-0.022588417
73	0x3d13e6fe	0.036108963
74	0x3d5a5d3e	0.05331158
75	0xbb6a3f40	-0.0035743266
76	0xbd118e18	-0.0355359
77	0x3b55dac0	0.0032631606
78	0xbc42c968	-0.011888839
79	0x3d7e25a6	0.062047623
80	0x3d642e3e	0.055708162
81	0xbd6b3e4e	-0.057432465
82	0xbd21103a	-0.039322115
83	0x3d0e15f4	0.034688905
84	0x3c246ab8	0.010035209
85	0x3cf55d00	0.029951572
86	0x3d65aa72	0.056070752
87	0xbc9fe530	-0.019518465
88	0x3c9fc96c	0.019505225
89	0x3bb5ed90	0.0055520013
90	0x3d140242	0.036134966
91	0xbccfb69c	-0.02535563
92	0x3cfaef8c	0.030631803
93	0x3d73d988	0.059533626
94	0x3b96ab70	0.0045980737
95	0xbcbc26fc	-0.022967808
96	0xbd0884c2	-0.033329733
97	0x3cf40984	0.029789694
98	0x3d441262	0.047869094
99	0xb8888c00	-6.5110624e-05
100	0xbd677bd2	-0.05651457
101	0x3d0e99b6	0.03481456
102	0x3c813ab4	0.015775062
103	0xba801f80	-0.0009775013
104	0x3ce48bd0	0.027898699
105	0xbcb9063c	-0.02258598
106	0x3d7a37ea	0.06108848
107	0xbd6be1ee	-0.05758851
108	0xbc4b03d8	-0.012391053
109	0xbb4bd3e0	-0.003110163
110	0xbd715a44	-0.058923975
111	0x3d555e66	0.05209198
112	0x3d0521d4	0.032502964
113	0x3d23c262	0.0399803
114	0xbcb1ae4c	-0.021689557
115	0x3c89e4e4	0.016832776
116	0x3cca2ecc	0.024680518
117	0x3d166818	0.036720365
118	0xbd6fa308	-0.058505088
119	0x3d14b674	0.036306813
120	0xbd73eeb4	-0.059553817
121	0xbd4b9f98	-0.049712747
122	0xbcf26d1c	-0.029593043
123	0x3d248226	0.04016318
124	0x3d1ff37c	0.039050564
125	0xbd538d42	-0.051648386
126	0x3cdf6024	0.027267523
127	0x3d303332	0.043017574
128	0xbd4dbedc	-0.050230846
129	0x3b9cddc0	0.004787177
130	0x3d773678	0.06035468
131	0x3d77ee98	0.060530275
132	0x3d43e4ea	0.04782573
133	0xbd6430be	-0.055710547
134	0x3d5c86a6	0.05383935
135	0xb9ae5500	-0.00033251196
136	0x3d6643ce	0.056217007
137	0xbc61cf78	-0.013782375
138	0xbcd22a20	-0.025654852
139	0x3d0f8dc2	0.0350473
140	0x3b158de0	0.002282016
141	0xbd49bb72	-0.049251027
142	0xbb54ae20	-0.003245242
143	0x3ca1c99c	0.019749455
144	0xbc277950	-0.010221794
145	0xbd198842	-0.03748346
146	0xbd005c06	-0.03133776
147	0xbbe5e020	-0.007015243
148	0xbc9686d0	-0.01837483
149	0x3d7ae032	0.061248966
150	0xbd30e236	-0.04318448
151	0x3cffa300	0.031205654
152	0xbd3f107e	-0.046646588
153	0xbc845e68	-0.016158298
154	0xbd109668	-0.03529969
155	0x3b8399a0	0.0040161163
156	0xbd69d1fa	-0.057085015
157	0x3d0f35d0	0.03496343
158	0xbc829f38	-0.015945062
159	0x3d0abfa6	0.033874176
160	0x3b719040	0.0036859661
161	0xbd1a7d54	-0.03771718
162	0x3d6c3c82	0.057674892
163	0xbd73f4e2	-0.05955971
164	0xbd268e6e	-0.040663175
165	0xbd03a1ca	-0.032136716
166	0x3d4f6256	0.05063089
167	0xbcee7dbc	-0.02911269
168	0x3d07d602	0.033163078
169	0x3d5fa39a	0.054599382
170	0x3d466f56	0.048446022
171	0x3c9e8e4c	0.019354962
172	0x3d0ee66e	0.034887724
173	0x3d4e33ee	0.050342493
174	0xbd12f112	-0.035874434
175	0x3d3afcce	0.04565125
176	0xbd720ed4	-0.059096172
177	0xbd072316	-0.032992445
178	0xbabeb140	-0.0014548674
179	0xbc98dce8	-0.018660024
180	0xbc4e32a0	-0.012585312
181	0x3d06325c	0.03276287
182	0x3b7de9a0	0.0038743988
183	0x3c7dfd20	0.015502244
184	0x3bbcb870	0.0057592914
185	0xbcb6f83c	-0.022335164
186	0x3d725708	0.05916503
187	0x3d05862c	0.03259866
188	0xbcf13e60	-0.029448688
189	0xbd57bfee	-0.052673273
190	0xbc620c80	-0.013796926
191	0xbd1867cc	-0.037208363
192	0xbd1f4010	-0.038879454
193	0xbd4b0b3c	-0.04957126
194	0x3d581600	0.052755356
195	0xbcedfae8	-0.029050305
196	0xb9921200	-0.000278607
197	0xbd45791c	-0.048211202
198	0x3d688d0e	0.056775145
199	0xbd34d8ec	-0.044152185
200	0xbc04e8f8	-0.008112185
201	0xbd7b6f04	-0.06138517
202	0x3d1028e6	0.035195254
203	0x3cf60e6c	0.030036174
204	0x3c51f908	0.012815721
205	0x3d3da154	0.046296433
206	0xbd738e5a	-0.05946193
207	0x3ca7ee6c	0.02049943
208	0x3c8d7ec0	0.017272353
209	0xbd1b0e88	-0.037855655
210	0x3d2d6bd2	0.042339154
211	0xbd5508b8	-0.052010268
212	0x3d77e304	0.060519233
213	0x3c9e2c20	0.01930815
214	0x3d49a7e6	0.049232386
215	0xbcf494ac	-0.029856049
216	0x3d7bacb0	0.061443985
217	0xbd15b6fe	-0.036551468
218	0xbc3fbf50	-0.011703327
219	0xbd25469c	-0.04035054
220	0x3d3e3320	0.046435475
221	0xbcc9b820	-0.02462393
222	0x3d690730	0.05689162
223	0x3b72f960	0.0037074909
224	0x3d539b34	0.051661685
225	0x3c75b098	0.0149957165
226	0xbcae9ae0	-0.021314085
227	0x3d5573ac	0.052112266
228	0x3d448b46	0.047984384
229	0xbb39cca0	-0.0028350726
230	0xbc73a878	-0.014871709
231	0x3d228dde	0.039686076
232	0xbd11bfc8	-0.035583287
233	0x3cb923d0	0.022600085
234	0xbb7e3120	-0.0038786605
235	0x3ce5eea4	0.028067894
236	0xbd02f98e	-0.031976275
237	0xbd349116	-0.044083677
238	0x3d433c3e	0.047664873
239	0xbd5d82ea	-0.054079928
240	0x3d039d3a	0.032132365
241	0xbca22f14	-0.01979784
242	0x3c898228	0.016785696
243	0xbd755d38	-0.059903353
244	0xba8dcb40	-0.001081802
245	0x3cf51228	0.029915884
246	0xbc89ca44	-0.01682008
247	0x3aef9b80	0.0018280596
248	0xbcf5d86c	-0.030010425
249	0x3caa57b0	0.020793766
250	0x3d044a9e	0.032297723
251	0x3b99efa0	0.004697755
252	0x3bf76620	0.007550016
253	0xbd476e9e	-0.048689477
254	0x3d0ad400	0.033893585
255	0xbd15e350	-0.036593735

network.6.weight f4 [256, 256]
0	0xbd2bef20	-0.041976094
1	0x3ab84680	0.0014059097
2	0xb99b8d00	-0.00029668957
3	0xbd5c0bc2	-0.05372215
4	0xbd5bf1f6	-0.05369755
5	0xbd2d1fb0	-0.042266548
6	0xbd63a8ba	-0.055580832
7	0xbd5536b4	-0.052054122
8	0x3d1576ac	0.036490127
9	0xbd08f648	-0.033437997
10	0x3d74b73a	0.05974505
11	0xbd4dc256	-0.05023416
12	0xbc5d7640	-0.0135169625
13	0xbc0fc3b0	-0.008774683
14	0x3d547ab2	0.051874824
15	0x3ced2758	0.028949425
16	0x3c27a410	0.010231987
17	0xbcdfff44	-0.0273434
18	0x3d00010a	0.03125099
19	0xbd428bf4	-0.04749675
20	0x3c5ab158	0.013347946
21	0x3d2057cc	0.03914623
22	0x3c9224f0	0.017839879
23	0x3d0b1b6a	0.03396169
24	0xbc6c9270	-0.01443921
25	0x3d4f50aa	0.050614037
26	0x3b3685e0	0.0027850792
27	0x3cf36fc4	0.02971638
28	0x3b8cffe0	0.0043029636
29	0x3c064f48	0.008197613
30	0xbd42c188	-0.047547847
31	0x3d24aec0	0.040205717
32	0xbd76ecb2	-0.060284324
33	0xbcdbd9f8	-0.026837334
34	0x3c1e9ce8	0.009680964
35	0x3cac43bc	0.021028392
36	0xbd0d82d2	-0.034548588
37	0xbcc2c8f8	-0.02377747
38	0xbcd2dbfc	-0.025739662
39	0xbd7c1faa	-0.061553635
40	0xbd6156b2	-0.05501432
41	0x3c959c48	0.018262997
42	0x3b5697c0	0.0032744259
43	0xbc80f5a4	-0.01574213
44	0x3ce558c4	0.027996428
45	0x3cac744c	0.021051548
46	0xbd5c5190	-0.05378872
47	0xbbf54120	-0.00748457
48	0x3bafd700	0.005366206
49	0xbc5e1678	-0.013555162
50	0x3d493cbc	0.049130186
51	0xbd255a1e	-0.040369146
52	0x3cea41a0	0.028595746
53	0x3d08b772	0.033378072
54	0xbd45d8c4	-0.048302427
55	0xbd5264b8	-0.051365584
56	0x3d096ed4	0.03355296
57	0xbcf8aa90	-0.030354768
58	0x3d3b3e06	0.045713447
59	0x3b823b90	0.0039743856
60	0xbbc79770	-0.006091051
61	0x3d558a7c	0.052134022
62	0xbc7892e8	-0.015171744
63	0x3b9eab60	0.004842207
64	0xbd2e003c	-0.042480692
65	0xbb6af900	-0.0035853982
66	0x3d6741de	0.0564593
67	0x3d67f7a8	0.056632668
68	0xbcde9958	-0.02717273
69	0xbcda1660	-0.026621997
70	0x3d635480	0.055500507
71	0x3d5f17d2	0.054466076
72	0xbc2b3ba8	-0.010451235
73	0xbbe97c30	-0.0071254
74	0xbd315ed2	-0.04330332
75	0xbd601efe	-0.054717056
76	0x3b819ae0	0.00395523
77	0xbd470306	-0.048586868
78	0x3cd996dc	0.026561193
79	0x3d4829a6	0.048867844
80	0xbcd0f9c4	-0.025509723
81	0xbd202abe	-0.039103262
82	0xbd6f1268	-0.058367163
83	0xbbab86f0	-0.0052345917
84	0xbcd93790	-0.026515752
85	0x3d7ec16a	0.062196173
86	0x3d008864	0.031380072
87	0x3d486dd4	0.048932865
88	0x3d5d141a	0.05397425
89	0x3b8895d0	0.0041682497
90	0xbd16378e	-0.036674075
91	0xbc3ff2f0	-0.011715636
92	0xbd5036f0	-0.050833642
93	0xbd0d7b02	-0.034541138
94	0xbd666fb8	-0.056258887
95	0x3cb247b4	0.021762706
96	0xbd457d34	-0.048215106
97	0x3a238580	0.00062378496
98	0x3d3d28a8	0.04618135
99	0xbc0b0978	-0.008486144
100	0x3d437514	0.047719076
101	0x3c2610d0	0.010135844
102	0xbc8bbaa4	-0.01705677
103	0x3c936ba0	0.017995656
104	0x3d64d154	0.055863693
105	0x3cf89ac4	0.030347236
106	0xbd59f93e	-0.05321621
107	0xbc74bf68	-0.014938213
108	0xbc80a1d0	-0.015702158
109	0xbcee5b48	-0.02909626
110	0xbb85cf90	-0.0040835813
111	0xbd6a9838	-0.057274073
112	0x3d415988	0.047204524
113	0xbd270d74	-0.040784314
114	0x3cf848fc	0.03030824
115	0x3c8bb8ac	0.017055832
116	0x3c96fbcc	0.018430613
117	0xbd4677ea	-0.048454203
118	0xbd34bd30	-0.044125736
119	0xbd4c69fa	-0.049905755
120	0x3d10c24e	0.035341553
121	0x3d2a0b24	0.04151453
122	0x3c5b6da8	0.013392843
123	0x3cbdac00	0.023153305
124	0x3cde55d8	0.027140543
125	0x3cb6dba8	0.022321537
126	0xbd108a14	-0.03528793
127	0x3c83ea30	0.01610288
128	0xbc66a678	-0.014077775
129	0x3cea0ad0	0.028569609
130	0x3d40e3e6	0.04709234
131	0x3c9376a4	0.018000908
132	0xbc7604a0	-0.015015751
133	0x3d3f7d30	0.046750247
134	0x3d490856	0.049080215
135	0xbbefb940	-0.0073157847
136	0x3d45c8c2	0.04828716
137	0xbd1c123c	-0.038103327
138	0x3d043b78	0.032283276
139	0xbaa0ec00	-0.0012277365
140	0xbb7b64e0	-0.0038359687
141	0xbc921db0	-0.017836422
142	0x3d740764	0.05957736
143	0xbc4a9da8	-0.01236669
144	0xbd37f362	-0.044909842
145	0xbcdb3734	-0.026759721
146	0xbcbb7f08	-0.022887722
147	0x3d22aca6	0.03971543
148	0x3d55af6a	0.05216924
149	0x3c920624	0.017825194
150	0xbc0c0550	-0.0085461885
151	0xb99a0a00	-0.0002938062
152	0xbb8a2920	-0.0042163283
153	0xbd7db446	-0.0619395
154	0xbca08c08	-0.019598022
155	0x3d473074	0.048630193
156	0x3af081c0	0.0018349215
157	0xbd49899c	-0.0492035
158	0xbd6bfcf8	-0.057614297
159	0x3ab092c0	0.0013471469
160	0xbcd9c95c	-0.026585273
161	0xbd082816	-0.033241354
162	0xbc8b26cc	-0.016986273
163	0x3d44e4f6	0.048069917
164	0x3d223bea	0.03960792
165	0xbcb9d7d4	-0.022685923
166	0x3d55c22e	0.052187137
167	0x3d4fd858	0.05074343
168	0x3c8d68d0	0.017261893
169	0x3cbdf2d0	0.023187071
170	0xbccc49c0	-0.02493751
171	0x3d42cf80	0.04756117
172	0xbd5a0516	-0.053227507
173	0xbd512e2e	-0.05106943
174	0xbd569e8e	-0.052397303
175	0xbd1439b8	-0.036187857
176	0xb93f6c00	-0.00018255413
177	0xbca4d15c	-0.020119362
178	0xbd247a76	-0.04015585
179	0x3d279c9c	0.04092084
180	0x3c7dc740	0.015489399
181	0x3ce7d29c	0.028298669
182	0xbb35bd40	-0.002773121
183	0x3c042cb0	0.008067295
184	0x3cf8df94	0.030380048
185	0xbc962c6c	-0.018331729
186	0xbb9c0d00	-0.004762292
187	0xbcb2b204	-0.0218134
188	0xbd19d86a	-0.037559904
189	0x3af8a180	0.0018969029
190	0x3d037248	0.03209141
191	0xbcca09c4	-0.02466286
192	0x3ce91fd8	0.028457567
193	0x3d08a04a	0.03335599
194	0xbcacac64	-0.021078296
195	0xbd4f213c	-0.050568804
196	0x3d2c114e	0.04200869
197	0x3d369a38	0.04458067
198	0xbcfefe68	-0.03112717
199	0xbba9f700	-0.0051869154
200	0x3b245e40	0.0025080591
201	0xbd1fa04e	-0.038971238
202	0xbc9695b4	-0.01838193
203	0xbce4ba4c	-0.027920865
204	0x3d793130	0.060837924
205	0x3d4f7676	0.050650083
206	0xbc1132d8	-0.00886222
207	0x3cbc64f8	0.022997364
208	0xbc4ac6d0	-0.012376502
209	0x3d125cfa	0.0357332
210	0x3d016d7e	0.03159856
211	0xbb00c380	-0.0019647777
212	0x3d3600a4	0.044434205
213	0xbd1803d8	-0.03711304
214	0x3c4528f8	0.0120336935
215	0xbd3341ca	-0.043763913
216	0xbd465134	-0.048417285
217	0x3c8ed7a0	0.017436802
218	0x3d01da16	0.031702124
219	0x3d2e2cf0	0.042523324
220	0xbd0d2324	-0.03445734
221	0x3b3309c0	0.0027319044
222	0xbcd14294	-0.025544442
223	0x3d09daee	0.033656053
224	0x3d381ca8	0.044949204
225	0x3cc3193c	0.023815744
226	0xbcf2bda8	-0.02963145
227	0x3d5e55e6	0.054281138
228	0x3c9fcb64	0.019506164
229	0x3c8a2038	0.016861066
230	0x3b6e0c80	0.0036323369
231	0x3b146160	0.0022641048
232	0x3d63bb06	0.05559828
233	0x3d0d8844	0.03455378
234	0x3d1912bc	0.037371382
235	0xbc2ea220	-0.010658771
236	0x3d7c9234	0.061662868
237	0x3d5564f8	0.052098244
238	0xbc84e484	-0.016222246
239	0xbcb22580	-0.021746397
240	0xbd4a9be8	-0.04946509
241	0x3d4ee148	0.050507814
242	0xbc65f2a8	-0.014034905
243	0xb9aaff00	-0.00032614917
244	0xbcd4b16c	-0.025963508
245	0x3d399e48	0.045316964
246	0xbc0cb230	-0.008587405
247	0xbd2c0b1e	-0.04200279
248	0xbc8c0e24	-0.017096587
249	0x3c2c4220	0.010513812
250	0xbced5bbc	-0.028974406
251	0x3cc308bc	0.023807876
252	0xbd601960	-0.0547117
253	0x3c945504	0.018106945
254	0xbd1290a0	-0.035782456
255	0x3c4b2b48	0.012400456

network.6.bias f4 [256]
0	0x3d4a5ee4	0.0494069
1	0x3acc87c0	0.0015604421
2	0x3d23ccec	0.03999035
3	0x3c498bd8	0.012301408
4	0xb9783c00	-0.00023673475
5	0xbd33f376	-0.043933354
6	0x3cc914e4	0.024546094
7	0x3d60ab66	0.05485096
8	0x3d40418a	0.046937503
9	0xbbafaa80	-0.0053609014
10	0xbd51edca	-0.051252164
11	0x3c81c398	0.015840337
12	0xbd699280	-0.05702448
13	0x3bbe2a70	0.005803399
14	0x3ceaa73c	0.028644197
15	0x3d6ec726	0.05829539
16	0x3d79ecae	0.06101673
17	0xbd5bc864	-0.053657904
18	0xbd314f1c	-0.043288335
19	0x3d181d12	0.0371371
20	0x3c87c12c	0.016571604
21	0x3cdc16f4	0.026866414
22	0xbd7bcdb8	-0.061475486
23	0x3d0afdc4	0.033933416
24	0x3b44e760	0.0030045137
25	0xbc6e4d30	-0.01454477
26	0x3ccea130	0.025223345
27	0xbd41b546	-0.047292016
28	0xbcf92a38	-0.03041564
29	0xbd6efd7c	-0.05834721
30	0x3ca532cc	0.020165823
31	0xbd0cb4bc	-0.03435205
32	0xbc497488	-0.01229585
33	0xbd673286	-0.056444667
34	0x3b9798b0	0.004626356
35	0xbd673a1e	-0.05645191
36	0x3d2ac438	0.041691035
37	0x3d7c323a	0.061571337
38	0x3d22ad2a	0.039715923
39	0xbd231560	-0.039815307
40	0xbcacbb30	-0.021085352
41	0xbd3b2e4c	-0.04569845
42	0xbd43e9d6	-0.047830425
43	0xbca99114	-0.020699061
44	0xbd1159a0	-0.035485864
45	0x3d443760	0.047904372
46	0x3d30430c	0.04303269
47	0x3b5905a0	0.0033114925
48	0x3d41b014	0.04728706
49	0x3d58101e	0.052749746
50	0xbd0fc696	-0.035101496
51	0x3c9d9ae0	0.01923889
52	0xbd093bba	-0.033504225
53	0x3d590864	0.052986518
54	0x3d32212a	0.04348866
55	0x3c1c2f38	0.009532742
56	0x3cdcc690	0.02695015
57	0x3d7d4a04	0.061838165
58	0x3d2d3a44	0.042291895
59	0xbcd3f640	-0.025874257
60	0x3d68ae4a	0.05680684
61	0x3c52eb48	0.012873478
62	0xbced0728	-0.028934076
63	0x3d0c3350	0.034228623
64	0x3cee6494	0.029100694
65	0x3d549dae	0.051908188
66	0xbd239916	-0.039940916
67	0xbd3d3ebe	-0.046202414
68	0x3d227fc4	0.039672628
69	0xbd037bec	-0.032100603
70	0x3b864ce0	0.0040985197
71	0xbc875bcc	-0.016523264
72	0x3ce82fb0	0.028343052
73	0xbcc95ac0	-0.024579406
74	0xbd2ec3d8	-0.04266724
75	0xbc0ad328	-0.008473195
76	0xbcf58658	-0.029971287
77	0xbcfbce6c	-0.030738078
78	0x3d48feaa	0.04907099
79	0xbcafd010	-0.021461517
80	0x3d295476	0.041340314
81	0x3cb00884	0.021488436
82	0xbbea3c00	-0.007148266
83	0x3d7459ac	0.05965583
84	0xbd09e042	-0.033661135
85	0x3ce37c0c	0.027769111
86	0x3932d000	0.00017052889
87	0xbd726a2c	-0.059183285
88	0x3b9e5370	0.004831724
89	0x3d65388a	0.055962123
90	0xbaa22c40	-0.0012372807
91	0x3cb29024	0.021797247
92	0xbd3201bc	-0.043458685
93	0xbd5fde52	-0.05465538
94	0xbd5cc20a	-0.053895988
95	0xbbe60770	-0.0070199296
96	0x3caf8d2c	0.02142962
97	0x3c94e2f8	0.018174633
98	0xbb143400	-0.0022614002
99	0x3c45c6d0	0.012071326
100	0x3ce61660	0.028086841
101	0xbca08cdc	-0.019598417
102	0xbbfca840	-0.0077104867
103	0x3c2426c0	0.010019004
104	0x3d450e3e	0.048109286
105	0xbc167cb8	-0.009185009
106	0xbd60cf92	-0.054885454
107	0x3d619932	0.05507774
108	0xbc269de8	-0.010169484
109	0xbc86c8e0	-0.016453207
110	0x3d75bf34	0.0599968
111	0xbc2509c0	-0.010073125
112	0x3c2b2f58	0.010448299
113	0x3d49e4b2	0.049290366
114	0x3bae40a0	0.0053177625
115	0x3d0dd368	0.03462544
116	0x3d78ccca	0.060742177
117	0xbc38a708	-0.011270292
118	0xbd1aca8c	-0.03779082
119	0x3d77a33a	0.0604584
120	0xbd559e34	-0.052152827
121	0xbc2a3bc0	-0.010390222
122	0xbb253ec0	-0.0025214404
123	0xbd70a154	-0.058747604
124	0x3c064c80	0.00819695
125	0x3cbdbd7c	0.023161642
126	0xbd0ae9ec	-0.03391449
127	0x3d222470	0.03958553
128	0xbc2de158	-0.010612808
129	0xbd216f9e	-0.039413087
130	0x3d7cbff2	0.06170649
131	0xbd549c42	-0.05190683
132	0xbd206b70	-0.03916496
133	0x3ccc2d40	0.02492392
134	0x3c9a30d0	0.018822104
135	0xbc196d40	-0.009364426
136	0xbd41320a	-0.04716686
137	0x3d16c19e	0.03680574
138	0x3bfb86d0	0.007675983
139	0x3d4495c0	0.047994375
140	0x3d0cab82	0.03434325
141	0x3d3d2154	0.046174362
142	0x3ce8ec98	0.02843313
143	0x3d29a852	0.04142029
144	0xbc4ae9a8	-0.01238481
145	0x3cc32fa8	0.023826435
146	0xbd7d98be	-0.061913244
147	0xbd10e2d0	-0.035372555
148	0xbd697b66	-0.057002448
149	0xbd56e8f0	-0.05246824
150	0x3c9995e8	0.018748239
151	0xbcf4648c	-0.0298331
152	0x3c9177f0	0.017757386
153	0xbbaa0750	-0.00518886
154	0x3d6c1612	0.057638235
155	0xbd4bfe52	-0.049803086
156	0x3d485d42	0.048917063
157	0x3d480496	0.0488325
158	0xbcc7d79c	-0.024394803
159	0xbd79f042	-0.061020143
160	0x3c0d9110	0.008640543
161	0xbca9ded0	-0.020736128
162	0xbd2a1a5c	-0.041529045
163	0x3cb5fedc	0.022216253
164	0x3d239f98	0.039947122
165	0xbd39c192	-0.04535062
166	0xbcc6d0ac	-0.024269424
167	0xbc175e88	-0.009238847
168	0xbc89cfa8	-0.016822651
169	0x3cb02100	0.02150011
170	0xbb01bf20	-0.0019797757
171	0x3cf3e7b0	0.029773563
172	0x3ca9ab98	0.020711705
173	0x3d555be8	0.0520896
174	0x3d2abae8	0.041682154
175	0x3d0b1dc2	0.033963926
176	0xbca99dd0	-0.020705134
177	0xbc1b88a8	-0.009493031
178	0xbd00c6a0	-0.031439424
179	0x3c957bf8	0.01824759
180	0x3b9d4680	0.004799664
181	0xbcfb65dc	-0.030688219
182	0xbd0966fc	-0.03354548
183	0x3cfc886c	0.03082677
184	0x3c3fa0d0	0.0116960555
185	0xbd11f558	-0.03563437
186	0x3ce35828	0.027751997
187	0xbb696520	-0.0035613254
188	0xbccd6fd4	-0.025077738
189	0xbcb40fe8	-0.021980241
190	0xbd700014	-0.058593825
191	0x3be16a90	0.0068791583
192	0xbd7f6942	-0.06235624
193	0xbcb881dc	-0.02252286
194	0x3d560678	0.052252263
195	0xbb4a3820	-0.0030856207
196	0xbd14adca	-0.03629855
197	0x3d551332	0.05202026
198	0xbd22a948	-0.03971222
199	0xbd32394c	-0.043511674
200	0x3d491566	0.049092673
201	0xbc5a31b8	-0.013317518
202	0x3ce50e0c	0.0279608
203	0xbcd81e5c	-0.026381664
204	0x3cd25254	0.025674023
205	0x3d1cd212	0.038286276
206	0xbd25c8fa	-0.04047487
207	0xbd453af4	-0.048151925
208	0xbd1e4e84	-0.038649097
209	0x3c42a788	0.011880763
210	0xbd346354	-0.04404004
211	0x3ca41308	0.020028606
212	0xbd3abf52	-0.045592614
213	0x3cc135b8	0.023585185
214	0x3d566bc8	0.052348882
215	0xbb130c60	-0.0022437796
216	0x3c560b40	0.013064206
217	0x3c8b01cc	0.01696863
218	0x3c0fda58	0.008780085
219	0x3d2bb628	0.041921765
220	0xbd5b64a2	-0.053562768
221	0x3d0753d4	0.03303893
222	0x3c97cc40	0.018530011
223	0x3c23de10	0.010001674
224	0xbc185190	-0.00929679
225	0x3d7b6ac6	0.061381124
226	0x3d6583be	0.056033842
227	0x3d377c10	0.04479605
228	0xbaec9640	-0.0018050149
229	0xbd23121e	-0.0398122
230	0xbd2d8502	-0.042363174
231	0x3c72a6a8	0.014810242
232	0x3cc18f8c	0.023628019
233	0xbb762420	-0.0037558153
234	0x3c1275d0	0.0089392215
235	0x3b17e880	0.0023179352
236	0x3c9391e4	0.018013902
237	0xbd01a0b0	-0.031647384
238	0x3cfbdfbc	0.030746333
239	0xbcf5b4f4	-0.029993512
240	0xbd22d8a2	-0.03975738
241	0xbc17aa20	-0.00925687
242	0xbc76b7e0	-0.015058488
243	0x3cc40018	0.023925826
244	0xbcf018d8	-0.029308721
245	0x3cd6cd98	0.026221082
246	0xbc94e1ec	-0.018174134
247	0xbd504ac8	-0.050852567
248	0xbd49909c	-0.049210176
249	0x3c71fe80	0.01477015
250	0xbd47efca	-0.048812665
251	0x3d362670	0.04447025
252	0x3d6b8e7c	0.05750893
253	0xbc8c396c	-0.017117225
254	0x3bf82d20	0.0075737387
255	0x3cb8e8c0	0.022571921

network.9.weight f4 [30, 256]
0	0x3d0c63d6	0.0342749
1	0x3d0c8e16	0.03431519
2	0xbce42550	-0.027849823
3	0xbd126536	-0.035741054
4	0xbd6daa5c	-0.058023795
5	0xbb6e4400	-0.003635645
6	0xbc1c76a0	-0.009549767
7	0x3d311b08	0.04323867
8	0x3cc7c100	0.024384022
9	0x3c9d6e88	0.019217744
10	0xbd42debc	-0.047575697
11	0x3d24dedc	0.040251598
12	0xbd19d724	-0.03755869
13	0x3c7a54f0	0.01527904
14	0xbd39f616	-0.0454007
15	0x3d08ae46	0.033369325
16	0xbce77964	-0.028256126
17	0x3d2794c4	0.04091336
18	0xbc6532c8	-0.013989158
19	0xbd71ea88	-0.059061557
20	0xbca827d4	-0.020526804
21	0x3cba73d8	0.022760317
22	0xbd065a5e	-0.032801025
23	0xbc25a928	-0.010111131
24	0xbd2981e8	-0.041383654
25	0x3c258ce8	0.010104395
26	0xbbdbdd90	-0.006709762
27	0xbd1d78e0	-0.038445354
28	0x3d4ae090	0.049530566
29	0xbbb3a9a0	-0.0054828674
30	0xbd1f3cd6	-0.038876377
31	0xbd254392	-0.040347643
32	0xbd794986	-0.060861133
33	0xbcc8f720	-0.0245319
34	0x3d6e851c	0.05823241
35	0xbd6c7548	-0.057729036
36	0xbbd5a890	-0.0065203384
37	0x3d628c6a	0.05530969
38	0xbd710ae2	-0.05884827
39	0xbd6bb25a	-0.057543136
40	0xbd37e050	-0.044891655
41	0x3c373738	0.011182599
42	0xbc9439a4	-0.018093891
43	0xbd161b62	-0.036647208
44	0xbd31291c	-0.043252096
45	0xbc6ca988	-0.014444716
46	0xbd6a010e	-0.057129912
47	0xbce5a9a0	-0.028034985
48	0xbd3b9704	-0.045798317
49	0x3c191d68	0.00934539
50	0x3b7d56c0	0.0038656443
51	0xbd362122	-0.04446519
52	0x3d60cf00	0.05488491
53	0xbb72c9e0	-0.0037046596
54	0x3d38e8f4	0.045144036
55	0x3d329962	0.04360331
56	0x3d09bf40	0.033629656
57	0x3d309de0	0.04311931
58	0xbd20f71a	-0.039298154
59	0x3c685a30	0.014181659
60	0xbc2dc8d8	-0.010606967
61	0xbca85850	-0.020549923
62	0xbd58d94a	-0.052941598
63	0x3d170fcc	0.0368803
64	0xbaf85940	-0.0018947497
65	0xba6db080	-0.0009067133
66	0x3d33d4ae	0.043904
67	0xbcb2c7e4	-0.02182383
68	0xbd5f09aa	-0.054452576
69	0x3b520be0	0.0032050535
70	0x3d6b6836	0.05747243
71	0x3cbb51ec	0.022866212
72	0xbd651922	-0.05593217
73	0xbd4ac27c	-0.04950188
74	0xbcdcc5e8	-0.026949838
75	0xbcb87004	-0.02251435
76	0xba35bd80	-0.000693284
77	0x3ce02770	0.027362555
78	0x3d477458	0.04869494
79	0x3d3b901a	0.045791723
80	0x3d321158	0.04347357
81	0x3c25b5d0	0.010114148
82	0x3c2d1d38	0.010566048
83	0xbd54835c	-0.051883087
84	0xbbc55530	-0.006022118
85	0xbd153d8c	-0.03643565
86	0x3d26deb0	0.040739715
87	0xbc0746e0	-0.008256644
88	0x3cd15144	0.025551446
89	0xbd6b507a	-0.057449795
90	0x3c16bfb0	0.009200975
91	0x3d0cdc80	0.034389973
92	0xbd3d0540	-0.046147585
93	0xbc9ea194	-0.019364156
94	0x3bdc4280	0.0067217946
95	0xbc2f4570	-0.0106977075
96	0xbd79e740	-0.061011553
97	0xbd33a9e4	-0.043863192
98	0xbd315628	-0.043295056
99	0x3d7812ac	0.060564682
100	0x3d43a7b8	0.04776737
101	0x3bee6a60	0.0072758645
102	0xbd30fc66	-0.043209456
103	0xbd442846	-0.04788997
104	0x3cce4304	0.02517844
105	0xbd616d68	-0.05503598
106	0xbc973064	-0.018455692
107	0xbc8e8b94	-0.01740054
108	0x3d1ebb3c	0.03875278
109	0x3ca94a2c	0.02066525
110	0xbd25ede8	-0.04051009
111	0x3d61e404	0.055149093
112	0xbcdb1708	-0.02674438
113	0x3cffb870	0.031215876
114	0x3cae35c8	0.02126588
115	0xbd778782	-0.060431965
116	0x3d2ff8ba	0.042961814
117	0xbd71456a	-0.05890409
118	0x3d5cfea8	0.053953797
119	0xbcd4ce0c	-0.025977157
120	0xbd1f117e	-0.03883504
121	0x3bfe3730	0.0077580437
122	0x3c8f1ac4	0.017468818
123	0xbd70d662	-0.0587982
124	0xbc9e6a84	-0.0193379
125	0xbd502a4a	-0.05082158
126	0xbd170070	-0.03686565
127	0xbcb0982c	-0.021556936
128	0x3bc9e900	0.006161809
129	0xbc589c40	-0.013220847
130	0x3c7141b8	0.014725141
131	0x3ca161c4	0.019699939
132	0x3d2685a4	0.040654793
133	0x3d4a940c	0.049457595
134	0x3b097460	0.0020973906
135	0x3d10ba4e	0.035333924
136	0x3c1d6800	0.009607315
137	0x3ce812a4	0.028329201
138	0x3ca1428c	0.019685052
139	0x3ca36dc0	0.019949794
140	0x3c825c98	0.015913293
141	0x3d5d9ef0	0.054106653
142	0xbd08cf00	-0.033400536
143	0xbceab444	-0.02865041
144	0x3d412dae	0.047162704
145	0xba83d080	-0.0010056645
146	0x3cd5b924	0.026089258
147	0x3ca82d28	0.020529345
148	0xbc9a426c	-0.0188305
149	0xbb271560	-0.0025494918
150	0xbb9c4c90	-0.004769869
151	0x3d40733c	0.046984896
152	0xbc970c00	-0.01843834
153	0xbd70dbb0	-0.05880326
154	0xbd60baec	-0.054865763
155	0xbcf03bec	-0.029325448
156	0x3d3a8764	0.045539275
157	0xbc08fa08	-0.008360393
158	0xbd4ac628	-0.049505383
159	0xbb622600	-0.0034507513
160	0xbb00f660	-0.00196781
161	0x3d64e2be	0.0558803
162	0xbca88008	-0.020568863
163	0xbc123368	-0.008923389
164	0xbd638118	-0.055543035
165	0xbd2701fa	-0.04077337
166	0xbd522a0c	-0.05130963
167	0x3b7bf4c0	0.0038445443
168	0xbb87bd20	-0.0041424185
169	0xbd6c98d6	-0.057762943
170	0x3d1ab2b8	0.037768096
171	0xbd17e9ae	-0.03708809
172	0xbd505338	-0.050860614
173	0xbd686468	-0.05673638
174	0x3d56279c	0.05228387
175	0x3d1bd644	0.038046136
176	0xbd34fed0	-0.04418832
177	0xbcb1e638	-0.021716222
178	0x3cdd3e08	0.027007118
179	0xbd24f59c	-0.040273294
180	0x3cd2e42c	0.025743566
181	0x3d4fad1a	0.050702192
182	0xbc943164	-0.018089958
183	0xbd1515c2	-0.036397703
184	0xbcbe5b3c	-0.023236863
185	0xbc6c9de8	-0.014441945
186	0xbb87ee40	-0.0041482747
187	0xbbdb5e20	-0.00669457
188	0xbd69d442	-0.05708719
189	0xbd7f1fd2	-0.062286206
190	0x3b558140	0.003257826
191	0xbd53cb04	-0.051707283
192	0xbd1325c6	-0.035924695
193	0x3b0d7e00	0.0021589994
194	0x3c9d4c48	0.019201413
195	0x3c8e3a8c	0.017361902
196	0xbcd333ec	-0.025781594
197	0x3b1b1020	0.0023660734
198	0xbc7b68d0	-0.0153448135
199	0xbd701d0a	-0.058621444
200	0x3d0a2e24	0.03373541
201	0xbd44e4a6	-0.04806962
202	0x3cf583bc	0.029970042
203	0xbd27c3b2	-0.040958114
204	0xbd3f3ede	-0.046690814
205	0x3d57bed0	0.052672207
206	0x3ca0948c	0.019602083
207	0x3ae5eb40	0.0017541423
208	0x396a6e00	0.00022356957
209	0x3ca304cc	0.019899748
210	0x3d19be6a	0.03753511
211	0xbd281992	-0.04104001
212	0x3d5986e8	0.053107172
213	0x3c60f3a8	0.013729967
214	0xbc16ec78	-0.009211652
215	0xbcac57b4	-0.021037914
216	0xbd312e38	-0.04325697
217	0xbc523000	-0.012828827
218	0x3cce3c58	0.025175259
219	0x3d09b64a	0.03362111
220	0x3d01a826	0.0316545
221	0x3ce5240c	0.02797129
222	0x3cc7dbc8	0.024396792
223	0x3bffb7b0	0.0078038797
224	0x3d3637e0	0.04448688
225	0x3c84c994	0.016209401
226	0x3c364620	0.011125118
227	0x3d25230a	0.04031662
228	0xbd3a3a84	-0.04546596
229	0xbb63d4e0	-0.0034764335
230	0xbd252b00	-0.04032421
231	0x3d6538fe	0.055962555
232	0x3c38c388	0.011277087
233	0xbccdd108	-0.025124088
234	0xbc459990	-0.012060538
235	0xbc7fa588	-0.015603431
236	0xbd574154	-0.052552536
237	0xbd130730	-0.035895526
238	0xbc8494ac	-0.016184174
239	0xbd0e8096	-0.034790598
240	0x3ced0b10	0.02893594
241	0xbc91ed58	-0.01781337
242	0x3c220820	0.009889632
243	0xbcf960ec	-0.030441724
244	0xbc908afc	-0.017644398
245	0xbd76a1ee	-0.060213022
246	0xbd593116	-0.053025328
247	0xbcdacd74	-0.026709296
248	0x3d4349da	0.047677852
249	0xbbf9d5e0	-0.007624373
250	0x3d47b758	0.048758835
251	0xbc700f50	-0.014652088
252	0xbd48a286	-0.04898312
253	0xbd7a35a4	-0.061086312
254	0xbc492388	-0.012276538
255	0x3c43c520	0.011948854

network.9.bias f4 [30]
0	0xbb2710a0	-0.0025492087
1	0xbd586980	-0.052834988
2	0x3d3425d4	0.04398139
3	0x3d3bb48c	0.04582648
4	0xbd14c718	-0.036322683
5	0x3ccd4e94	0.025061883
6	0xbd639eca	-0.055571355
7	0xbd7add60	-0.061246276
8	0x3c916594	0.017748632
9	0xbd0fd10c	-0.035111472
10	0x39886f00	0.00026022643
11	0x3cf96074	0.0304415
12	0xbc788c00	-0.015170097
13	0x3cf13f6c	0.029449187
14	0xbc941e74	-0.018080927
15	0x3b8e9910	0.0043517426
16	0x3c9ec604	0.01938153
17	0xbcf50680	-0.029910326
18	0x3d5f228c	0.054476306
19	0xbc7d3c88	-0.015456326
20	0xbd23b228	-0.039964825
21	0xbd5a1f8c	-0.05325274
22	0x3d0f1762	0.03493441
23	0x3c099f30	0.00839977
24	0x3d228222	0.039674886
25	0xbbbdafa0	-0.0057887584
26	0xbca3dd10	-0.020002872
27	0xbcc9ba0c	-0.024624847
28	0x3d228d86	0.03968575
29	0x3c87e9e0	0.016591012
