results/checkpoints/meta_policy.pt (torch, 587248 bytes, 8 tensors)

network.0.weight f4 [256, 7]
0.2889684 0.31371352 -0.08854666 0.34720245 -0.08281335 0.076269716 -0.1840139 0.22197196
0.3331919 -0.27728537 0.32852527 0.07073957 0.2792435 0.051187932 0.18225 -0.05336517
0.29136744 0.05586651 -0.1764489 0.096342504 -0.17414208 -0.044324964 -0.15351342 0.25073066
-0.29835388 -0.17424552 -0.10672763 -0.22725962 0.03567347 -0.37330762 0.34134313 -0.32106882
0.29179892 0.06290051 -0.12272677 0.23356315 0.05890605 0.30538145 0.041318953 -0.11919984
0.101552874 -0.10249618 0.15906921 0.33745506 0.21848598 -0.16523568 0.21818551 0.06762776
0.19194362 -0.23037125 -0.37415022 -0.14603055 -0.2899074 0.31013456 0.10886562 0.156558
0.119535476 -0.006575048 0.2957981 -0.2685489 0.023798048 -0.25797594 0.116546094 -0.13016427
0.11581448 -0.07874566 0.31348065 -0.22402026 -0.22541726 -0.22543086 0.3399574 0.1259571
0.3636966 -0.3119251 -0.37489393 -0.2957057 -0.25425255 0.1530908 0.13533995 0.31405988
-0.19519044 -0.25766283 0.20053968 -0.15277493 0.22939566 -0.08969122 0.21621302 -0.2936663
-0.19073968 0.11523247 0.07990453 -0.09636536 0.22529307 0.25694373 -0.27408975 -0.20178321
0.34608766 -0.12753749 -0.1339946 -0.3657164 -0.21644899 0.09441692 -0.04988873 -0.2743591
0.0088658035 -0.25818053 -0.32066378 -0.20813091 -0.33079907 -0.24066436 0.37781665 0.071388036
0.11647341 -0.35252154 -0.24823716 -0.12580767 0.059102714 -0.332579 -0.1628547 -0.22627544
0.0010474324 -0.1406418 -0.026191324 -0.25611997 -0.25943297 -0.22050515 -0.12937626 -0.2983201
0.3169118 -0.075012356 0.3251994 0.11776695 -0.32005918 0.2615647 -0.103994966 -0.14488363
-0.31373715 -0.3757574 0.108139664 -0.082564026 0.14715031 -0.31018162 0.28061184 -0.2774462
-0.065264374 0.07894531 0.19512483 0.30513462 0.34431025 -0.2996964 0.095121294 -0.16257232
-0.04141918 -0.28290266 0.34427223 -0.2774072 0.20200357 0.13283166 0.12282178 -0.20434505
0.34355137 0.08305785 0.048621356 -0.333083 0.15866515 -0.056702465 -0.1731547 0.32465127
0.08426672 -0.20911883 -0.19130252 -0.018049955 0.2110407 -0.09658271 -0.21565703 -0.12943123
-0.28236774 0.13479438 0.2925597 -0.355831 0.0877825 0.19525334 0.06853607 -0.13460246
0.19727561 0.1986253 0.14133123 -0.06641644 -0.10008547 0.040434986 -0.066768974 -0.112633795
0.2415975 0.32482252 -0.03741747 -0.084625065 0.005515367 -0.0225676 0.09086692 0.10591835
-0.34328878 -0.13948315 0.31829503 0.14723793 -0.018799037 -0.22787695 -0.23124059 -0.33856803
-0.123202205 0.12764016 0.2409983 0.1745052 -0.33409944 -0.22729364 -0.05964908 0.36562374
0.0546754 -0.097881734 0.15636966 -0.14395969 -0.24463964 0.27587143 -0.17186111 -0.075769305
-0.37600067 0.25296053 0.28635898 0.13774845 -0.26354486 -0.37302822 -0.3069748 0.28184822
0.18146291 0.31805876 0.19800422 0.09565985 -0.0037012994 -0.28744426 -0.32382944 -0.35352856
0.15472427 -0.18556845 -0.076066315 -0.21752053 -0.06887403 -0.2660246 -0.24696791 0.12537488
-0.11232966 0.2333338 -0.121254325 -0.27726236 -0.06668764 -0.1832173 -0.11563504 -0.35982051
00000000: abf3 933e 0f9f a03e f457 b5bd 85c4 b13e
00000010: 0c9a a9bd 4c33 9c3d 246e 3cbe 9e4c 633e
00000020: 2198 aa3e 59f8 8dbe 7734 a83e e8df 903d
00000030: 01f9 8e3e 70aa 513d be9f 3a3e 7095 5abd
00000040: 1d2e 953e 48d4 643d 05af 34be 384f c53d
00000050: 4d52 32be 188e 35bd 9f32 1dbe c55f 803e
00000060: d7c1 98be 6b6d 32be 0494 dabd bfb6 68be
00000070: 581e 123d 2d22 bfbe 87c4 ae3e 2263 a4be
00000080: ab66 953e fcd1 803d 2c58 fbbd 2e2b 6f3e
00000090: 7847 713d f55a 9c3e 103e 293d 0c1f f4bd
000000a0: f4fa cf3d 84e9 d1bd 0ae3 223e e9c6 ac3e
000000b0: caba 5f3e 8b33 29be 066c 5f3e 6c80 8a3d
000000c0: de8c 443e 71e6 6bbe 9e90 bfbe 0889 15be
000000d0: be6e 94be f5c9 9e3e f0f4 de3d be50 203e
000000e0: 04cf f43d 8073 d7bb d972 973e 3e7f 89be
000000f0: 20f4 c23c 6c15 84be b8af ee3d c849 05be
00000100: 2430 ed3d 6845 a1bd 8980 a03e 9165 65be
00000110: c8d3 66be 59d7 66be e50e ae3e e6fa 003e
00000120: 7136 ba3e a6b4 9fbe 19f2 bfbe bd66 97be
00000130: 642d 82be d6c3 1c3e 8e96 0a3e 75cc a03e
00000140: 01e0 47be 62ec 83be 465a 4d3e 0871 1cbe
00000150: b2e6 6a3e 08b0 b7bd f266 5d3e 6e5b 96be
00000160: 4351 43be 00ff eb3d fca4 a33d 345b c5bd
00000170: 3ab3 663e 218e 833e 7e55 8cbe 42a0 4ebe
00000180: 6732 b13e 3099 02be e135 09be 2e3f bbbe
00000190: cea4 5dbe a85d c13d 2058 4cbd cc78 8cbe
000001a0: e041 113c 3d30 84be 0b2e a4be 4520 55be
000001b0: 7f5e a9be b870 76be 2f71 c13e e433 923d
000001c0: 9c89 ee3d b47d b4be e231 7ebe bad3 00be
000001d0: b015 723d cb47 aabe 62c3 26be c0b4 67be
000001e0: 004a 893a 6704 10be 308f d6bc 2822 83be
000001f0: 66d4 84be 1acc 61be 367b 04be 6abd 98be
00000200: 4342 a23e 14a0 99bd 8980 a63e cc2f f13d
00000210: ccde a3be cfeb 853e 50fb d4bd 605c 14be
00000220: 28a2 a0be 4663 c0be 5478 dd3d 5417 a9bd
00000230: 92ae 163e 20d0 9ebe 5bac 8f3e 6e0d 8ebe
00000240: 54a9 85bd 14ae a13d cece 473e 9b3a 9c3e
00000250: 6f49 b03e ce71 99be f4ce c23d 5c79 26be
00000260: 28a7 29bd 9ed8 90be 7344 b03e 5108 8ebe
00000270: 06da 4e3e 0605 083e fc89 fb3d d43f 51be
00000280: f7e5 af3e 3c1a aa3d 3027 473d db89 aabe
00000290: 1e79 223e d840 68bd 774f 31be b138 a63e
000002a0: 0894 ac3d 3f23 56be cfe4 43be 80dd 93bc
000002b0: 0e1b 583e 28cd c5bd 32d5 5cbe 9f89 04be
000002c0: 8192 90be 8a07 0a3e 63ca 953e 7b2f b6be
000002d0: 50c7 b33d 7ef0 473e a45c 8c3d 3ad5 09be
000002e0: 9e02 4a3e 6e64 4b3e 22b9 103e 5805 88bd
000002f0: 9cf9 ccbd 289f 253d 2cbe 88bd 8cac e6bd
00000300: 5665 773e 234f a63e 1043 19bd e84f adbd
00000310: 40ba b43b b0df b8bc 7018 ba3d b8eb d83d
00000320: 8cc3 afbe acd4 0ebe 91f7 a23e 8ac5 163e
00000330: 7000 9abc 9358 69be 55ca 6cbe ca58 adbe
00000340: 7051 fcbd 1ab4 023e 42c8 763e 7eb1 323e
00000350: 150f abbe aabf 68be 9852 74bd 0933 bb3e
00000360: 50f3 5f3d 3876 c8bd 5e1f 203e 2b6a 13be
00000370: d082 7abe 053f 8d3e 5cfc 2fbe f02c 9bbd
00000380: 2983 c0be 0b84 813e a59d 923e ee0d 0d3e
00000390: 5aef 86be 8efd bebe cd2b 9dbe 694e 903e
000003a0: 6ad1 393e 99d8 a23e 9ec1 4a3e 50e9 c33d
000003b0: 8091 72bb e52b 93be f9cc a5be b201 b5be
000003c0: 0a70 1e3e a805 3ebe a8c8 9bbd b4bd 5ebe
000003d0: d40d 8dbd 6034 88be 28e5 7cbe 4662 003e
000003e0: 180d e6bd 0eef 6e3e 3054 f8bd 55f5 8dbe
000003f0: 8893 88bd 519d 3bbe 10d2 ecbd 653a b8be

network.0.bias f4 [256]
-0.3433277 0.3337088 -0.028747767 -0.18686199 -0.12964818 -0.29508537 0.29495052 -0.08195737
-0.21250598 -0.2866531 0.22091648 -0.05224657 -0.0397079 -0.09851009 -0.1824521 0.067236215
0.2907947 -0.21906072 0.018109292 -0.287447 -0.17722644 0.33176586 0.003962964 0.36410037
-0.06622094 -0.20600733 -0.22582935 0.33499542 -0.29064974 0.19835362 0.09395525 0.11154005
0.21326265 -0.098884165 0.23387066 -0.3011328 -0.13298352 0.27668563 0.11217219 -0.050334483
-0.08826628 -0.2307906 0.22983703 -0.012019336 -0.012787998 0.089386135 0.27891824 -0.19283117
-0.13016999 0.25612047 0.21346393 -0.1859345 -0.37390515 0.0701167 0.19876924 0.09027952
0.26809564 -0.299905 0.19060221 -0.23497269 0.21272096 0.28109762 0.119707435 0.30580142
-0.24913587 -0.33804226 -0.3634148 0.23729798 0.13240471 -0.27677083 0.18304095 0.34485945
-0.37270457 0.27418336 0.05796951 0.035158604 0.34008983 0.3422809 0.15925577 0.2986429
0.15724245 0.06158611 -0.33223495 0.07059723 -0.2689014 0.11636248 0.066685766 0.008491248
-0.2584244 -0.22912101 0.27936777 0.18407592 0.19927791 -0.112624675 -0.06508407 -0.096863866
0.25992367 -0.16316266 0.23806652 0.26060417 -0.3456697 0.0023080707 -0.07198468 -0.20894721
0.16317388 -0.04592079 0.330911 -0.23656946 0.17561415 -0.3227033 -0.18944398 0.025782079
0.29862717 0.19908115 -0.31034112 0.04186541 -0.2228062 0.016377091 -0.3148721 -0.110884756
0.25923315 -0.34679607 -0.36035988 0.06884408 0.051813006 -0.06912422 0.33004317 -0.22756822
-0.22945476 -0.2825194 -0.0703477 -0.096458375 0.23386434 -0.021222323 0.12070429 -0.15706566
0.3066019 0.31863114 -0.33849326 -0.097136736 -0.32070187 0.16056946 -0.3302212 -0.17870606
0.37765166 -0.36092553 0.27886388 0.03193009 0.3022335 -0.19181293 0.24825785 0.04560283
0.029070169 0.25797293 -0.3592655 -0.30443197 0.36502424 -0.22696635 -0.2724397 -0.01848045
-0.120987356 -0.05171001 -0.25323072 0.13637671 -0.3252315 0.030612439 0.22055718 0.0726206
0.050220072 0.055282623 -0.110724896 -0.07200158 -0.1593851 -0.2553258 -0.2001156 0.37364075
-0.0632548 0.13239947 0.26138285 -0.029525757 -0.2033351 -0.25608566 -0.13924336 0.1349093
-0.318306 -0.04614824 0.14377263 0.30836424 0.11374104 0.074748784 0.25875095 0.17465279
0.12787053 -0.117186576 -0.30308926 -0.08164111 -0.06854907 0.027756661 -0.041568607 0.15280667
0.25117633 -0.15323447 -0.3586356 -0.1939183 -0.18084708 0.21424547 -0.24380356 -0.035550237
-0.080105454 -0.22939883 0.1713256 -0.15744318 -0.019552916 -0.26574105 -0.038121402 0.053703368
-0.015380442 -0.14122555 0.112287045 -0.09792969 -0.20954308 -0.27872333 -0.08006403 -0.3570549
0.31371805 -0.18056412 -0.15663536 0.034938693 0.09798095 -0.035639167 0.25929227 -0.22033425
0.13545522 -0.0008524358 -0.30746317 -0.1463837 0.096187115 0.07220703 0.27483132 0.25285557
-0.20615044 -0.16140197 -0.08014411 -0.27078152 -0.10204658 -0.3092932 0.14375582 0.2674323
0.029925883 -0.27057743 -0.2862355 -0.14714125 0.109932244 0.009219319 0.06872225 0.35622445
00000000: a6c8 afbe e1db aa3e 7080 ebbc c058 3fbe
00000010: 7ec2 04be 6e15 97be c103 973e 44d9 a7bd
00000020: 2b9b 59be 32c4 92be ee37 623e 8000 56bd
00000030: c0a4 22bd a8bf c9bd b9d4 3abe 24b3 893d
00000040: 0be3 943e 7451 60be f059 943c 412c 93be
00000050: d97a 35be 37dd a93e c0db 813b 5d6b ba3e
00000060: d89e 87bd 96f3 52be cf3f 67be 8584 ab3e
00000070: 0bd0 94be 361d 4b3e 9c6b c03d 1c6f e43d
00000080: 8661 5a3e c883 cabd ca7b 6f3e 142e 9abe
00000090: d52c 08be bda9 8d3e 88ba e53d 882b 4ebd
000000a0: f4c4 b4bd 5f54 6cbe 665a 6b3e c0ec 44bc
000000b0: c084 51bc 1410 b73d 5fce 8e3e 8975 45be
000000c0: 484b 05be 3922 833e 4a96 5a3e 9d65 3ebe
000000d0: 7f70 bfbe 5899 8f3d 2a8a 4b3e 78e4 b83d
000000e0: d543 893e 268d 99be 3a2d 433e ae9c 70be
000000f0: 86d3 593e 07ec 8f3e 2c29 f53d 0192 9c3e
00000100: 791d 7fbe e013 adbe 8111 babe 3efe 723e
00000110: 1a95 073e e8b4 8dbe 166f 3b3e 6b91 b03e
00000120: 22d3 bebe c361 8c3e 7071 6d3d 7802 103d
00000130: 4120 ae3e 713f af3e f213 233e b9e7 983e
00000140: 2a04 213e b841 7c3d b31a aabe 4895 903d
00000150: 72ad 89be 744f ee3d 8c92 883d e01e 0b3c
00000160: 3450 84be b39e 6abe 4b09 8f3e 667e 3c3e
00000170: 820f 4c3e c4a7 e6bd cc4a 85bd 9060 c6bd
00000180: b714 853e 1d14 27be b6c7 733e e96d 853e
00000190: 9efb b0be 0043 173b b46c 93bd 42f6 55be
000001a0: 0e17 273e 7017 3cbd 2b6d a93e 443f 72be
000001b0: 32d4 333e 5e39 a5be 9afd 41be f034 d33c
000001c0: a9e5 983e eedb 4b3e 08e5 9ebe 107b 2b3d
000001d0: 4f27 64be 4029 863c ea36 a1be 8c17 e3bd
000001e0: 35ba 843e 418f b1be 1781 b8be 20fe 8c3d
000001f0: e039 543d 0091 8dbd 6bfb a83e a507 69be
00000200: 30f6 6abe 62a6 90be 7412 90bd f88b c5bd
00000210: 227a 6f3e 70da adbc d033 f73d d2d5 20be
00000220: edfa 9c3e 9f23 a33e fd4e adbe a0ef c6bd
00000230: 0933 a4be 526c 243e c112 a9be b9fe 36be
00000240: 8f5b c13e 3bcb b8be 3fc7 8e3e 20c9 023d
00000250: 59be 9a3e 9c6a 44be 4e37 7e3e 08ca 3a3d
00000260: 9024 ee3c 0715 843e a6f1 b7be 82de 9bbe
00000270: 75e4 ba3e de69 68be 377d 8bbe 5064 97bc
00000280: 38c8 f7bd e0cd 53bd 75a7 81be 56a6 0b3e
00000290: be84 a6be f0c6 fa3c bed9 613e 1cba 943d
000002a0: 90b3 4d3d 0870 623d bcc3 e2bd 9075 93bd
000002b0: d935 23be 10ba 82be 1beb 4cbe d74d bf3e
000002c0: bc8b 81bd ba93 073e f9d3 853e 00e0 f1bc
000002d0: 1437 50be a91d 83be d095 0ebe aa25 0a3e
000002e0: 01f9 a2be f005 3dbd 2239 133e ebe1 9d3e
000002f0: 10f1 e83d e415 993d 017b 843e 2ed8 323e
00000300: 7ef0 023e 84ff efbd 842e 9bbe 7433 a7bd
00000310: 7463 8cbd f061 e33c d843 2abd 5a79 1c3e
00000320: 2f9a 803e 7fe9 1cbe 169f b7be 8592 46be
00000330: fa2f 39be 2a63 5b3e a4a7 79be 209d 11bd
00000340: 540e a4bd 87e7 6abe fa6f 2f3e c938 21be
00000350: 702d a0bc 360f 88be 3025 1cbd 10f8 5b3d
00000360: 40fe 7bbc 6e9d 10be c0f6 e53d 5c8f c8bd
00000370: 7692 56be d3b4 8ebe 9cf8 a3bd e6cf b6be
00000380: a79f a03e cde5 38be 0565 20be e01b 0f3d
00000390: 3caa c83d 60fa 11bd f5c1 843e 4d9f 61be
000003a0: c6b4 0a3e 0076 5fba d06b 9dbe 9ce5 15be
000003b0: c0fd c43d 48e1 933d b1b6 8c3e 4976 813e
000003c0: 1a19 53be 8f46 25be 9822 a4bd e0a3 8abe
000003d0: ccfd d0bd ae5b 9ebe ba34 133e e3ec 883e
000003e0: 2027 f53c 2089 8abe 768d 92be 32ac 16be
000003f0: 2824 e13d a00c 173c 40be 8c3d 0d63 b63e

network.3.weight f4 [256, 256]
0.029027626 0.01343891 -0.012645118 0.029565558 0.022865035 -0.05625639 -0.03691931 0.00209786
0.023715146 0.03040643 -0.037204914 -0.062007144 -0.003255725 -0.007144831 0.018136248 -0.0171879
0.047782674 0.0041702613 0.04564043 -0.043519646 0.025002249 0.0074472576 -0.03125927 0.030984238
-0.061501212 0.05052919 0.0050367564 0.006034538 0.028902851 0.0051882714 0.026790723 0.039763384
-0.048778653 0.041347526 -0.009358674 -0.014534317 0.012580097 0.04888448 -0.03397595 -0.042120695
0.038787954 -0.029354244 0.02012188 -0.009207882 0.017203309 0.04769469 -0.031674936 -0.030328974
0.030663796 0.0034220293 -0.006878637 -0.05489926 0.052953646 -0.0023669302 -0.011511713 -0.02565562
-0.012333639 0.030377142 -0.001436457 0.05345054 -0.0036084205 -0.008966111 0.035278223 -0.001617223
-0.012474559 0.020889163 0.049289435 0.015596844 0.043519884 0.04050239 0.017674863 0.021730535
0.02016776 0.0064829215 0.053171024 0.057696283 0.022249289 -0.00312116 0.056037128 -0.048645034
0.045923993 0.033114098 0.040133506 -0.004802227 -0.04663112 0.04458368 -0.027328476 0.016444534
0.03540907 -0.05840785 0.0041477457 -0.02220165 0.044359706 -0.03979384 0.03794811 0.038973123
0.03448218 0.06000077 0.009465694 -0.05664882 0.044616558 0.0057216734 0.001240313 -0.05953683
-0.014047265 -0.030335486 0.061213188 0.044501804 0.046624266 0.04280229 -0.038742118 -0.02684185
-0.024459392 -0.02505514 0.04865201 0.021235429 0.05008463 -0.0029236823 -0.055714197 -0.018132702
0.043924667 0.038050346 0.019348219 -0.01833298 -0.05833569 -0.03358292 0.032586277 -0.025209859
0.029896162 0.01706507 -0.024005458 0.038067393 -0.020083286 -0.0020764172 -0.023807064 -0.059285723
0.010077387 0.01806058 -0.031467587 0.038340427 -0.05606597 -0.06024854 -0.03860306 -0.021600306
-0.0069411322 -0.012077987 0.02852428 -0.054851584 0.009202972 0.0010823533 0.01650814 0.062130004
0.03846553 -0.03460654 -0.051215783 -0.01513131 -0.031351686 0.021831572 0.00057293475 0.050270222
0.024550386 -0.011491895 0.0021481216 0.014967874 -0.007755451 0.050433412 -0.048868768 0.030462869
-0.039840244 -0.05475509 -0.01283104 0.030456558 0.04416012 0.015683904 -0.0054018125 -0.00350371
-0.025336333 -0.0056085885 -0.0043183714 0.053185165 0.03657776 -0.050013997 0.0002585426 -0.038441867
-0.009921305 -0.049673006 0.01624757 -0.045067377 0.061701313 0.04720016 -0.04302243 -0.058841497
0.0024386048 -0.01744698 0.018347919 -0.04230713 0.025583826 -0.053984337 -0.032985628 -0.03285636
0.03024321 -0.0016363263 -0.060064286 -0.035695 -0.028923556 -0.05798935 0.008002929 0.022271119
-0.0114673525 -0.02487155 -0.0003790334 -0.049642608 -0.038056344 -0.0014253929 0.05552358 -0.019219272
0.030978717 -0.0245969 -0.016637363 -0.05949653 0.051780313 0.060857974 -0.0013127029 0.03971061
0.051121354 0.031044848 0.032188706 -0.059499413 -0.058729418 -0.04797127 0.019549102 -0.05406104
-0.04770904 -0.030293927 -0.057605334 8.421391e-05 0.00901676 -0.036575027 0.040922835 -0.023727804
-0.01759544 0.047617197 0.053659476 -0.007170029 -0.04486738 -0.031354316 0.007958703 0.03663703
0.031115294 -0.027598903 -0.059085414 -0.054696687 -0.019884765 0.0007840097 -0.028073475 -0.049419075
00000000: 58cb ed3c e02e 5c3c 782d 4fbc 7833 f23c
00000010: 744f bb3c 1a6d 66bd b438 17bd 407c 093b
00000020: 4446 c23c e816 f93c 2e64 18bd 34fb 7dbd
00000030: 005e 55bb 301f eabb 7892 943c a4cd 8cbc
00000040: c4b7 433d b0a6 883b 76f1 3a3d a841 32bd
00000050: 84d1 cc3c 2008 f43b b809 00bd a8d2 fd3c
00000060: b2e8 7bbd b2f7 4e3d 600b a53b 60bd c53b
00000070: acc5 ec3c 6002 aa3b 3878 db3c eede 223d
00000080: 20cc 47bd 065c 293d 2055 19bc 5821 6ebc
00000090: c01c 4e3c 183b 483d 5e2a 0bbd c086 2cbd
000000a0: 1ee0 1e3d 5078 f0bc a4d6 a43c a8dc 16bc
000000b0: f4ed 8c3c 825b 433d 94bd 01bd 7874 f8bc
000000c0: a432 fb3c 2044 603b 3066 e1bb 0cde 60bd
000000d0: ece5 583d 801e 1bbb a09b 3cbc bc2b d2bc
000000e0: 0813 4abc 7cd9 f83c 8047 bcba f4ee 5a3d
000000f0: 407b 6cbb 98e6 12bc e67f 103d 00f9 d3ba
00000100: 1862 4cbc c01f ab3c b8e3 493d e889 7f3c
00000110: e841 323d d6e5 253d e0ca 903c 3c04 b23c
00000120: dc36 a53c b06e d43b dcc9 593d f052 6c3d
00000130: 2444 b63c 608c 4cbb 3087 653d 0440 47bd
00000140: cc1a 3c3d a6a2 073d 0863 243d 005c 9dbb
00000150: 4600 3fbd 609d 363d f8df dfbc b0b6 863c
00000160: 1a09 113d 123d 6fbd d0e9 873b 3ce0 b5bc
00000170: 86b2 353d defe 22bd 7a6f 1b3d 48a2 1f3d
00000180: 303d 0d3d 5ec3 753d 0016 1b3c 9808 68bd
00000190: dabf 363d e07c bb3b 0092 a23a e4dc 73bd
000001a0: 8026 66bc 2082 f8bc aeba 7a3d 8647 363d
000001b0: 16f9 3e3d 7451 2f3d 0eb0 1ebd 70e3 dbbc
000001c0: 105f c8bc 7040 cdbc 5447 473d ecf5 ad3c
000001d0: 8a25 4d3d 409b 3fbb 9234 64bd 088b 94bc
000001e0: 5aea 333d aeda 1b3d 2880 9e3c 0c2f 96bc
000001f0: 68f1 6ebd 3e8e 09bd 3079 053d e884 cebc
00000200: cce8 f43c 0ccc 8b3c 18a7 c4bc 8eec 1b3d
00000210: b485 a4bc 8014 08bb 0807 c3bc 96d5 72bd
00000220: a01b 253c c8f3 933c 28e4 00bd da0a 1d3d
00000230: 6ea5 65bd 2cc7 76bd 3e1e 1ebd 20f3 b0bc
00000240: 7072 e3bb c0e2 45bc c0ab e93c 0eac 60bd
00000250: 10c8 163c c0dd 8d3a 143c 873c 087c 7e3d
00000260: 088e 1d3d 96bf 0dbd a4c7 51bd 50e9 77bc
00000270: a06a 00bd 20d8 b23c 0031 163a 26e8 4d3d
00000280: e41d c93c 8048 3cbc 80c7 0c3b d03b 753c
00000290: 7021 febb 4493 4e3d 9e2a 48bd 448d f93c
000002a0: 862f 23bd e046 60bd 4839 52bc 0880 f93c
000002b0: 3ee1 343d 887b 803c b001 b1bb 809e 65bb
000002c0: 248e cfbc 40c8 b7bb 2081 8dbb b0d8 593d
000002d0: 90d2 153d 7adb 4cbd 008d 8739 3875 1dbd
000002e0: f88c 22bc ec75 4bbd a019 853c 9298 38bd
000002f0: 84ba 7c3d f454 413d 4a38 30bd c803 71bd
00000300: 00d1 1f3b f8ec 8ebc 604e 963c 3e4a 2dbd
00000310: 2c95 d13c ae1e 5dbd f01b 07bd 6494 06bd
00000320: 9cc0 f73c 007a d6ba f805 76bd ec34 12bd
00000330: 18f1 ecbc 3e86 6dbd b81e 033c ec71 b63c
00000340: 90e1 3bbc 6cbf cbbc 00b9 c6b9 0c56 4bbd
00000350: f8e0 1bbd 40d4 baba b26c 633d bc71 9dbc
00000360: 14c7 fd3c 707f c9bc 144b 88bc a2b2 73bd
00000370: 9817 543d 3646 793d 000f acba 98a7 223d
00000380: a064 513d c451 fe3c 4ed8 033d a8b5 73bd
00000390: 428e 70bd 867d 44bd 7025 a03c 1c6f 5dbd
000003a0: 8e6a 43bd f82a f8bc 92f3 6bbd 009c b038
000003b0: 08bb 133c b2cf 15bd b49e 273d d060 c2bc
000003c0: 5024 90bc 400a 433d 0aca 5b3d 90f2 eabb
000003d0: dcc6 37bd 626d 00bd 3865 023c b610 163d
000003e0: 80e5 fe3c 1817 e2bc 8c03 72bd a209 60bd
000003f0: 60e5 a2bc 0086 4d3a 58fa e5bc a86b 4abd

network.3.bias f4 [256]
-0.023900509 0.04408688 0.019745052 -0.03889621 0.056917213 -0.0045016035 0.003066115 0.038287997
0.05252996 -0.062331304 -0.001430966 -0.0085702315 -0.034372307 -0.06186194 -0.0020791814 -0.049228005
0.007322043 -0.044361003 -0.030016765 0.040652275 0.05630949 -0.04604029 0.048606604 -0.051191613
0.009940021 -0.010219246 -0.039069667 -0.017545007 -0.017941438 -0.034311034 -0.012463629 -0.001076892
-0.026473515 -0.008780554 -0.009393863 -0.029785536 -0.028640695 0.018079296 0.03465058 0.019989207
-0.01205229 -0.06149272 0.0034420341 0.0017939806 -0.0389217 0.045789547 -0.04363934 0.05698295
0.0028261393 -0.0059494227 0.049383223 0.03855107 0.055723608 0.024340004 -0.028885804 0.050856687
0.020674929 0.020083822 -0.052665636 -0.0047545135 -0.009730592 0.041996963 0.049095914 -0.045274615
0.05950526 -0.002516888 -0.052705504 -0.008479103 -0.010187641 -0.016114876 -0.0009835064 0.042501688
-0.026247405 -0.024453364 0.059597224 -0.026802853 -0.058764026 0.030707002 0.05836864 0.049485564
-0.038563326 -0.020097181 -0.03779105 0.014860071 0.0044837445 -0.040279403 0.05690083 0.038107686
-0.00228066 -0.020946681 -0.024835855 -0.047376454 0.019858405 0.013518274 -0.048574768 -0.030628622
0.014645174 -0.03507685 0.023574546 0.006399043 -0.01143267 0.06143681 0.058771625 0.024636634
-0.015970834 -0.035247035 0.031426355 0.008870654 0.017078914 -0.057204783 -0.034062207 -0.033687107
0.0538932 -0.018943362 0.023667246 0.059657395 0.01380004 5.3554773e-05 -0.048430815 -0.057511874
-0.03685116 -0.05370678 0.044333376 0.017438248 0.00019516796 0.05479511 -0.039560094 0.05443774
0.043141715 0.015669324 -0.05243329 -0.045531712 -0.021496758 -0.044058524 0.043478653 0.0024189427
-0.016010746 -0.04965028 0.009361595 0.052434288 0.020063452 -0.049992576 0.017742641 0.04665999
0.05892703 0.016592145 0.057312533 -0.02473569 0.05413463 -0.03447546 0.022884868 -0.051741756
0.038308732 0.021299511 -0.035913818 0.00094828755 -0.04555192 0.052561484 -0.037726566 -0.027695693
0.011463277 -0.04010214 -0.016377293 0.059676208 -0.04886081 -0.01467187 0.022493355 -0.009465843
0.011817403 0.04558488 -0.045004725 -0.04573319 0.037792288 0.012073882 0.05514379 -0.019498058
-0.046573557 -0.022983767 -0.062368892 -0.0015389398 0.05061409 0.029641159 0.041083068 -0.013847612
0.01938226 -0.019265331 -0.03502351 0.02197519 0.04924933 0.008623667 -0.031144157 -0.03394486
-0.008780137 -0.039112605 0.046174586 0.05016786 0.041600987 -0.0010376424 -0.016448252 -0.033820346
-0.008563697 0.0057977512 -0.015997723 0.03009995 0.017614886 0.012881033 0.022388116 0.021677174
0.024990492 0.037254445 0.061812826 0.03479343 -0.019487642 0.02565898 -0.03276726 0.011720665
-0.053023838 0.0262487 -0.060810357 -0.035911746 0.04593368 0.04305298 -0.053334326 -0.02417478
0.0447181 -0.04903374 0.0019330531 -0.03816276 0.059256695 -0.014478274 8.060038e-05 -0.031203791
-0.029431947 0.00810267 0.048955016 -0.043846235 -0.017810263 -0.0010090992 0.062229007 -0.039333507
-0.043458708 0.04243633 0.0077193677 0.016461045 -0.05152802 -0.047403798 0.0016868487 0.007551387
0.0050420016 -0.016818985 -0.0129752755 0.046077676 0.010787487 0.00937257 -0.06163986 0.019391201
00000000: 00cb c3bc 7294 343d 60c0 a13c a251 1fbd
00000010: 0622 693d 3082 93bb e0f0 483b e0d3 1c3d
00000020: a829 573d 1c4f 7fbd 408f bbba 286a 0cbc
00000030: fac9 0cbd f262 7dbd e042 08bb 4ea3 49bd
00000040: c0ed ef3b e2b3 35bd b8e5 f5bc 0083 263d
00000050: c8a4 663d be94 3cbd b817 473d 4cae 51bd
00000060: 78db 223c a06e 27bc 8407 20bd 8cba 8fbc
00000070: ecf9 92bc ba89 0cbd 4034 4cbc 8026 8dba
00000080: fcde d8bc 50dc 0fbc b8e8 19bc cc00 f4bc
00000090: e49f eabc 081b 943c c4ed 0d3d 68c0 a33c
000000a0: f876 45bc cadf 7bbd c093 613b 0024 eb3a
000000b0: 5c6c 1fbd d28d 3b3d 2abf 32bd f466 693d
000000c0: c036 393b 60f3 c2bb 1046 4a3d bae7 1d3d
000000d0: 703e 643d b064 c73c eca1 ecbc 1a4f 503d
000000e0: 785e a93c d486 a43c ecb7 57bd c0cb 9bbb
000000f0: 106d 1fbc 0205 2c3d cc18 493d e071 39bd
00000100: cabb 733d 60f2 24bb bae1 57bd f0eb 0abc
00000110: 10ea 26bc 5803 84bc 00e9 80ba 4016 2e3d
00000120: cc04 d7bc 6c52 c8bc 381c 743d a891 dbbc
00000130: 8cb2 70bd 408d fb3c f413 6f3d 60b1 4a3d
00000140: 94f4 1dbd d8a2 a4bc caca 1abd a877 733c
00000150: 60ec 923b 04fc 24bd d810 693d ce16 1c3d
00000160: 2077 15bb 6098 abbc 9074 cbbc d00d 42bd
00000170: 18ae a23c c07b 5d3c 56f6 46bd e0e8 fabc
00000180: 50f2 6f3c beac 0fbd 681f c13c 10af d13b
00000190: 1850 3bbc 2aa5 7b3d 84ba 703d c4d2 c93c
000001a0: 44d5 82bc 325f 10bd ecb8 003d 3856 113c
000001b0: 14e9 8b3c 904f 6abd d084 0bbd 7efb 09bd
000001c0: 1ebf 5c3d 1c2f 9bbc d0e1 c13c 505b 743d
000001d0: 9019 623c 00a0 6038 645f 46bd 9291 6bbd
000001e0: 3ef1 16bd a4fb 5bbd ea96 353d a8da 8e3c
000001f0: 00a6 4c39 d670 603d c409 22bd 1cfa 5e3d
00000200: 5eb5 303d f45c 803c 4ac4 56bd 767f 3abd
00000210: f819 b0bc b676 34bd ac16 323d 2087 1e3b
00000220: f828 83bc 185e 4bbd 6061 193c 56c5 563d
00000230: 1c5c a43c 04c5 4cbd 0459 913c 8c1e 3f3d
00000240: 785d 713d 40ec 873c 8cc0 6a3d 80a2 cabc
00000250: 46bc 5d3d 2436 0dbd 0c79 bb3c 2aef 53bd
00000260: 9ee9 1c3d 507c ae3c 5e1a 13bd 8096 783a
00000270: a694 3abd b64a 573d 2c87 1abd 14e2 e2bc
00000280: 78d0 3b3c 2442 24bd ac29 86bc 0a6f 743d
00000290: 4622 48bd 4862 70bc fc43 b83c a016 1bbc
000002a0: c89d 413c 36b7 3a3d e056 38bd ba52 3bbd
000002b0: 16cc 1a3d 88d1 453c 74de 613d 64ba 9fbc
000002c0: eac3 3ebd 7448 bcbc 8676 7fbd 40b6 c9ba
000002d0: b850 4f3d 04d2 f23c b846 283d 18e1 62bc
000002e0: 8cc7 9e3c 54d2 9dbc d074 0fbd 5005 b43c
000002f0: aab9 493d 484a 0d3c 0822 ffbc c409 0bbd
00000300: 90da 0fbc 8a34 20bd 9021 3d3d d07c 4d3d
00000310: cc65 2a3d 8001 88ba 7cbe 86bc 3487 0abd
00000320: c04e 0cbc 10fb bd3b a80d 83bc 2c94 f63c
00000330: 184d 903c f80a 533c 4867 b73c 5494 b13c
00000340: dcb8 cc3c 1e98 183d 722f 7d3d 8e83 0e3d
00000350: 8ca4 9fbc c832 d23c f636 06bd 0808 403c
00000360: 862f 59bd 8407 d73c 4814 79bd 3218 13bd
00000370: f424 3c3d 5258 303d 1875 5abd 300a c6bc
00000380: 542a 373d 9ad7 48bd 805e fd3a 8e50 1cbd
00000390: 26b7 723d 4836 6dbc 0008 a938 189f ffbc
000003a0: 441b f1bc 10c1 043c 0e85 483d 1c98 33bd
000003b0: d4e6 91bc c043 84ba d8e3 7e3d 2c1c 21bd
000003c0: c201 32bd b8d1 2d3d c0f2 fc3b 50d9 863c
000003d0: 0c0f 53bd 7c2a 42bd 4019 dd3a a071 f73b
000003e0: 6037 a53b f8c7 89bc 4096 54bc f2bb 3c3d
000003f0: 00be 303c 688f 193c 147a 7cbd 4cda 9e3c

network.6.weight f4 [256, 256]
-0.021246389 0.05090803 0.047055542 -0.056186676 0.030275889 0.037106365 -0.01908151 0.024642013
0.038126513 0.044860907 0.04940764 -0.01676847 -0.020622551 0.042485446 0.045854375 -0.062156573
-0.051027164 -0.048717692 0.043094106 0.015036441 -0.03219661 0.010906555 0.0021382645 0.013096638
-0.02324675 0.025286235 -0.048124343 0.0133783 0.03835337 0.029562868 -0.036190517 -0.019384086
0.055874683 -0.031567663 0.054471716 -0.049587578 -0.035287924 0.0011377856 0.030752659 -0.020447716
-0.015656263 0.03182403 0.04010061 0.0054662228 0.008503087 0.05765135 0.025791094 -0.0212785
-0.05830627 -0.031249136 0.017694473 -0.059923016 0.0047499985 -0.009545162 -0.044060655 0.0327141
0.029025398 0.05443658 -0.060482167 -0.04304459 0.043485776 -0.04969935 0.057361484 0.04701706
-0.01815737 0.047635213 0.020801336 -0.011802517 0.0047346503 -0.015340306 -0.008045167 0.049547225
-0.060974896 -0.028993435 -0.011610985 -0.024043195 -0.053861417 0.004997596 0.019453675 -0.050192393
0.013229504 0.016102478 -0.018504046 0.046911195 0.00928358 -0.017624147 0.019530185 0.03858923
-0.04495997 -0.003989905 0.00779406 -0.013732381 0.023890465 0.002441205 0.04918868 -0.020453915
-0.04146853 0.05978231 0.019043438 0.0012819543 0.060759567 -0.044521004 -0.021067582 0.045097463
0.056657948 0.012250617 0.062044293 -0.024976999 0.040017605 -0.052576803 0.015312366 0.041037075
0.014420599 0.03578732 0.0074159577 0.02699352 -0.0618876 -0.0018420517 0.017569505 0.031381503
-0.0088204965 -0.009766266 -0.0600096 0.033477843 0.027182572 -0.020638674 0.042929918 -0.008283503
0.016340278 0.027954333 0.026251458 0.01361534 -0.04700114 0.05147647 -0.005449444 0.056228757
0.009090722 -0.0033305287 -0.0071236193 -0.060777552 0.015958928 0.046356507 0.01902587 -0.050368883
-0.004957713 -0.010208733 0.052567646 -0.0010434166 -0.019075155 -0.055149242 0.015038475 -0.05224839
-0.0375641 0.025205977 -0.041184634 -0.021731593 0.034273796 0.052367724 0.04216443 -0.010393694
0.006310232 0.057365917 -0.011300467 0.06044676 -0.001434125 0.056724757 -0.04251229 0.014012285
-0.022245742 -0.055506356 -0.037509143 0.007610075 -0.007811971 -0.032962963 0.054520465 -0.037161946
0.00492391 0.040620618 0.03158555 -0.056579277 0.040071547 0.018324189 -0.05212369 -0.036438122
0.014370389 0.02568984 -0.052811213 -0.04625217 0.010552198 -0.0018671155 0.019578792 0.02458638
-0.013845526 -0.029572375 0.053761855 0.052458726 -0.053322203 -0.006204799 0.04146649 -0.046655968
0.038255267 -0.005119413 -0.05469323 0.013293654 0.035800792 0.016993903 -0.052942738 0.037108384
-0.05479414 -0.050725147 -0.02092012 -0.00022687763 0.018789448 0.032445677 -0.060629107 0.026017182
0.025730357 -0.048096985 -0.050340697 0.04818005 0.021868259 -0.057200298 -0.045127086 0.023143202
-0.0016625822 -0.010581963 -0.0027051866 -0.021618351 0.042234764 -0.017151937 -0.040835947 0.04181999
0.013528563 -0.05606865 -0.059898198 0.019600168 -0.050974637 -0.021294035 0.049273178 0.062354766
-0.03517642 -0.004336238 0.024454705 0.042353988 0.015586309 0.062152445 -0.025200829 -0.0035875663
0.059581503 -0.028088473 -0.062447533 0.025617875 -0.04424794 -0.035981983 0.050961867 0.047693424
00000000: e80c aebc f084 503d 50bd 403d 0024 66bd
00000010: 2405 f83c d8fc 173d d450 9cbc 0cde c93c
00000020: 8c2a 1c3d 12c0 373d aa5f 4a3d 085e 89bc
00000030: a0f0 a8bc 3805 2e3d ccd1 3b3d e497 7ebd
00000040: dc01 51bd 348c 47bd 7283 303d 685b 763c
00000050: 98e0 03bd 68b1 323c 2022 0c3b 4893 563c
00000060: f86f bebc 1425 cf3c 081e 45bd a830 5b3c
00000070: 6c18 1d3d d42d f23c 823c 14bd 60cb 9ebc
00000080: dadc 643d 184d 01bd bc1d 5f3d 581c 4bbd
00000090: 128a 10bd c021 953a 00ed fb3c f881 a7bc
000000a0: 9041 80bc ea59 023d 8a40 243d 001e b33b
000000b0: 8850 0b3c d223 6c3d d847 d33c 4050 aebc
000000c0: 8ed2 6ebd 30fe ffbc 00f4 903c d671 75bd
000000d0: e0a5 9b3b 5063 1cbc f278 34bd 38ff 053d
000000e0: acc6 ed3c e4f8 5e3d 26bc 77bd 864f 30bd
000000f0: 241e 323d 8c91 4bbd e0f3 6a3d f694 403d
00000100: c4be 94bc 241d 433d 9067 aa3c 585f 41bc
00000110: 2025 9b3b e855 7bbc e0cf 03bc 08f2 4a3d
00000120: d0c0 79bd a483 edbc 003c 3ebc 3cf6 c4bc
00000130: ca9d 5cbd e0c2 a33b 505d 9f3c 8a96 4dbd
00000140: 90c0 583c 58e9 833c cc95 97bc f425 403d
00000150: 281a 183c 8460 90bc c4fd 9f3c be0f 1e3d
00000160: f227 38bd c0bd 82bb 5065 ff3b c8fd 60bc
00000170: f0b5 c33c a0fc 1f3b 127a 493d f88e a7bc
00000180: e8da 29bd 4cde 743d fc00 9c3c 4007 a83a
00000190: 06df 783d a85b 36bd ec95 acbc 1eb8 383d
000001a0: 2a12 683d d0b6 483c 2822 7e3d 909c ccbc
000001b0: 80e9 233d c65a 57bd b8e0 7a3c 7e16 283d
000001c0: 6044 6c3c ba95 123d 9001 f33b 8421 dd3c
000001d0: da7d 7dbd 0071 f1ba eced 8f3c e489 003d
000001e0: d883 10bc b002 20bc a0cc 75bd 1020 093d
000001f0: fcad de3c 7012 a9bc 48d7 2f3d 88b7 07bc
00000200: 0cdc 853c 7c00 e53c 4c0d d73c e012 5f3c
00000210: 4484 40bd fed8 523d 4091 b2bb 2050 663d
00000220: 40f1 143c 0045 5abb 406d e9bb e2f1 78bd
00000230: 4cbc 823c 52e0 3d3d 24dc 9b3c 9a4f 4ebd
00000240: 5074 a2bb 8842 27bc 2c51 573d 40c3 88ba
00000250: 8043 9cbc 2ce4 61bd f063 763c 6802 56bd
00000260: d0dc 19bd c47c ce3c 38b1 28bd 7406 b2bc
00000270: ae62 0c3d 8a7f 563d 9cb4 2c3d 504a 2abc
00000280: 10c6 ce3b 86f8 6a3d 9825 39bc 0697 773d
00000290: 40f9 bbba 3858 683d 5e21 2ebd c893 653c
000002a0: b43c b6bc a25a 63bd 30a3 19bd f05d f93b
000002b0: 90fb ffbb 2c04 07bd da50 5f3d 2037 18bd
000002c0: c058 a13b ce61 263d da5f 013d acbf 67bd
000002d0: 1022 243d 9c1c 963c a67f 55bd 2440 15bd
000002e0: c871 6b3c 8073 d23c 9250 58bd ea72 3dbd
000002f0: 20e3 2c3c 00ba f4ba b463 a03c 6069 c93c
00000300: 58d8 62bc c441 f2bc 6435 5c3d f6de 563d
00000310: 6268 5abd a051 cbbb c4d8 293d 541a 3fbd
00000320: 8eb1 1c3d c0c0 a7bb 0206 60bd a0cd 593c
00000330: daa3 123d cc36 8b3c 7cda 58bd f6fe 173d
00000340: d26f 60bd 2cc5 4fbd ac60 abbc 00e6 6db9
00000350: 54ec 993c c2e5 043d 3a56 78bd fc21 d53c
00000360: 78c8 d23c 5801 45bd 0c32 4ebd 7258 453d
00000370: 1025 b33c dc4a 6abd 2ed7 38bd d096 bd3c
00000380: 00eb d9ba f85f 2dbc 8049 31bb f818 b1bc
00000390: 5cfe 2c3d 3882 8cbc 9843 27bd 704b 2b3d
000003a0: e8a6 5d3c 3ea8 65bd d057 75bd 8890 a03c
000003b0: c8ca 50bd d470 aebc acd2 493d b667 7f3d
000003c0: 2615 10bd 0017 8ebb 3c55 c83c 607b 2d3d
000003d0: b85d 7f3c 9093 7e3d f871 cebc 601d 6bbb
000003e0: bc0b 743d cc19 e6bc fcc8 7fbd 94dc d13c
000003f0: 543d 35bd d861 13bd 64bd 503d 2e5a 433d

network.6.bias f4 [256]
-0.01216618 0.0029698834 0.0057788417 0.018303089 0.009359963 -0.002629958 -0.019971311 0.025340252
-0.007515073 -0.015775174 -0.037243493 0.047020286 0.062342256 -0.045780987 -0.04425186 0.012219913
0.033961684 0.041273944 -0.026585102 0.018472724 0.031444244 -0.022804014 -0.01070302 0.031073421
-0.037472725 0.0363629 0.012804806 0.057674333 -0.038043573 0.06139011 0.03648045 -0.045995012
-0.018450707 0.060261413 -0.052524798 0.0408331 -0.0074124187 0.055181637 0.05568917 -0.017062858
0.05359058 0.011508182 -0.0413483 -0.019372582 0.061808057 -0.035188243 -0.038168326 0.055080704
0.055233784 0.047895536 0.029108278 -0.054206423 -0.03354384 0.0143851265 -0.032104082 -0.018470004
0.028976083 0.015131876 0.011024855 -0.0028305948 -0.048195273 0.046760358 -0.01425764 0.027120225
-0.02850131 -0.03554558 -0.029074915 -0.03254897 0.029307537 -0.03667929 -0.022112578 -0.009195827
-0.016151398 0.012235008 0.044356987 0.054018386 0.050101906 -0.023432732 -0.015171535 0.04610786
0.0541934 -0.04365746 0.024348788 0.0023899078 0.045777425 0.048616 -0.046455383 -0.010353468
-0.001789242 0.031629942 0.05255682 0.053691857 -0.054936618 -0.03295487 0.020674214 -0.038323067
-0.0610331 0.039306164 -0.042062894 -0.015028283 0.01092805 -0.05168114 0.041930422 -0.049932912
-0.004238479 0.049902223 0.028318577 -0.019184202 -0.0068747625 -0.048640475 0.036865734 0.0211429
0.04005242 0.0072238594 0.025026925 0.05488158 -0.0029976815 -0.00995785 0.0058579296 -0.020587154
-0.03499742 0.033452965 0.021440804 0.017328963 -0.0019779876 0.012272656 -0.03986191 -0.0008983165
-0.043025553 0.049306244 -0.021346115 -0.06217888 -0.020911276 0.023276381 -0.013204813 0.008022323
0.028214268 0.02394604 0.017224923 0.047167324 0.0278197 -0.03212153 -0.04600273 0.031991392
0.035282694 0.06226261 0.0042393133 0.03970722 -0.045763694 -0.0015579015 -0.010300435 -0.025018506
-0.057142682 -0.02408608 0.00742013 -0.056539856 0.020211942 -0.008353382 -0.025565252 -0.057035454
-0.024829231 -0.05068668 0.029445685 0.05180715 0.053095125 -0.0008573681 -0.058328554 -0.061810844
0.039229326 -0.033702604 0.053529754 -0.017908216 -0.020083606 -0.0060759634 0.01899279 0.0043056384
-0.061575003 -0.024301268 0.056714654 -0.04677131 0.009234831 -0.03853967 -0.0144152865 0.028524294
-0.05618915 0.027565792 -0.022266023 -0.049742 0.04530453 -0.031699248 -0.01650346 0.049858086
-0.004506454 0.0624066 -0.02850449 -0.008939631 -0.0055892095 -0.008030757 -0.052155755 0.0033629164
0.024816588 0.036167048 0.03496228 0.010284118 -0.011495769 0.028748974 0.002468735 0.03594681
0.019381836 -0.030978613 -0.033569507 0.036258593 0.029649436 -0.060109384 0.05159974 0.010689139
-0.041594133 -0.058771722 0.028225116 0.061548382 0.040820308 -0.033854842 -0.012366161 -0.05391167
0.03753242 0.016727932 -0.020752609 -0.018188007 -0.031674534 -0.033252962 -0.039013624 -0.012790449
0.038182087 0.002666384 0.023801029 0.05117365 -0.053166375 0.03533823 -0.050683603 -0.025680497
-0.013400197 0.034188718 -0.049463093 -0.03688176 0.02299688 -0.054232873 0.05174025 -0.047473855
0.0252055 -0.010944381 -0.025247797 -0.0015640482 -0.05784017 0.015550353 0.016337857 -0.011807211
00000000: a854 47bc 60a2 423b 705c bd3b 5cf0 953c
00000010: 885a 193c 605b 2cbb e09a a3bc 5c96 cf3c
00000020: 0041 f6bb f03a 81bc a28c 18bd 5898 403d
00000030: 985a 7f3d d884 3bbd 7041 35bd 0836 483c
00000040: 681b 0b3d de0e 293d 00c9 d9bc 1c54 973c
00000050: aecb 003d 7ccf babc b85b 2fbc b08d fe3c
00000060: 007d 19bd 44f1 143d 40cb 513c ec3b 6c3d
00000070: 94d3 1bbd 3274 7b3d 866c 153d 4465 3cbd
00000080: f025 97bc acd4 763d 3e24 57bd 9c40 273d
00000090: e0e3 f2bb 2406 623d 541a 643d 68c7 8bbc
000000a0: cc81 5b3d d08c 3c3c d65c 29bd 40b3 9ebc
000000b0: 722a 7d3d 8c21 10bd 6456 1cbd 4e9c 613d
000000c0: d23c 623d 1c2e 443d 7c74 ee3c 8e07 5ebd
000000d0: 4465 09bd 98af 6b3c 927f 03bd 684e 97bc
000000e0: 405f ed3c b0eb 773c 98a1 343c 8081 39bb
000000f0: 6868 45bd ca87 3f3d e098 69bc 3c2b de3c
00000100: 947b e9bc 3e98 11bd 842e eebc 1252 05bd
00000110: 5c16 f03c 063d 16bd 7025 b5bc 18aa 16bc
00000120: f04f 84bc 5875 483c acaf 353d 6242 5d3d
00000130: a837 4d3d 00f6 bfbc 0892 78bc 98db 3c3d
00000140: e6f9 5d3d 2ad2 32bd 1c77 c73c 00a0 1c3b
00000150: 1c81 3b3d 9221 473d 0048 3ebd 98a1 29bc
00000160: 0085 eaba 668e 013d d245 573d feeb 5b3d
00000170: 3805 61bd b0fb 06bd f85c a93c a6f8 1cbd
00000180: d8fd 79bd 80ff 203d 244a 2cbd 3039 76bc
00000190: 900b 333c 9aaf 53bd 3cbf 2b3d 7486 4cbd
000001a0: f0e2 8abb 4666 4c3d 5cfc e73c 3028 9dbc
000001b0: b045 e1bb 3c3b 47bd 8600 173d e033 ad3c
000001c0: 020e 243d 20b6 ec3b 4405 cd3c 82cb 603d
000001d0: c074 44bb 4026 23bc e0f3 bf3b 64a6 a8bc
000001e0: 7459 0fbd fa05 093d a0a4 af3c 78f5 8d3c
000001f0: 20a1 01bb 4013 493c 3e46 23bd 007d 6bba
00000200: 903b 30bd 58f5 493d 0cde aebc 48af 7ebd
00000210: 204e abbc 1cae be3c 0059 58bc 1070 033c
00000220: 9c21 e73c 7c2a c43c 481b 8d3c 8632 413d
00000230: 24e6 e33c de91 03bd 5c6d 3cbd 6809 033d
00000240: 9684 103d 1407 7f3d f0e9 8a3b 0aa4 223d
00000250: b672 3bbd 8032 ccba 28c3 28bc 9cf3 ccbc
00000260: 720e 6abd 2c50 c5bc 9024 f33b 5696 67bd
00000270: 8493 a53c a0dc 08bc 386e d1bc 029e 69bd
00000280: ac66 cbbc d69c 4fbd 1438 f13c bc33 543d
00000290: 467a 593d 00c1 60ba ece9 6ebd 5e2d 7dbd
000002a0: eeae 203d be0b 0abd 0442 5b3d 40b4 92bc
000002b0: 6086 a4bc e018 c7bb c496 9b3c 5016 8d3b
000002c0: 1236 7cbd 7413 c7bc a04d 683d 4693 3fbd
000002d0: b04d 173c c6db 1dbd 182e 6cbc c8ab e93c
000002e0: 9826 66bd a8d1 e13c 3c67 b6bc 44be 4bbd
000002f0: 3e91 393d 12d7 01bd 4432 87bc fe37 4c3d
00000300: e0aa 93bb 109e 7f3d 4082 e9bc 8877 12bc
00000310: b025 b7bb 7093 03bc 46a1 55bd 6064 5c3b
00000320: 284c cb3c e623 143d 9c34 0f3d b87e 283c
00000330: c058 3cbc f882 eb3c 80ca 213b f63c 133d
00000340: a8c6 9e3c dcc6 fdbc 2e80 09bd e483 143d
00000350: 60e3 f23c 4235 76bd 405a 533d 8021 2f3c
00000360: 9c5e 2abd 9eba 70bd 5c38 e73c 281a 7c3d
00000370: 3233 273d 60ab 0abd 709b 4abc 7cd2 5cbd
00000380: 98bb 193d 0409 893c 6001 aabc 04ff 94bc
00000390: 28bd 01bd 4234 08bd c0cc 1fbd 088f 51bc
000003a0: d264 1c3d 80be 2e3b 60fa c23c 769b 513d
000003b0: fcc4 59bd d2be 103d 9c99 4fbd e85f d2bc
000003c0: 808c 5bbc 7809 0c3d d099 4abd 5411 17bd
000003d0: f463 bc3c 4a23 5ebd 96ed 533d f273 42bd
000003e0: c47b ce3c 1050 33bc 78d4 cebc c000 cdba
000003f0: d0e9 6cbd e8c6 7e3c f8d6 853c 0873 41bc

network.9.weight f4 [30, 256]
-0.01687453 -0.021805532 0.04124871 0.036813915 0.026775546 0.0070114657 -0.06133887 -0.022308514
0.050902374 -0.018317088 -0.026566014 0.024274431 0.03693752 -0.046816118 0.038873233 -0.03233917
-0.022668786 -0.054174945 -0.059020013 -0.034875304 0.01622127 -0.04913798 0.020043291 -0.005642891
-0.024142884 0.03676703 0.04965488 -0.062146045 -0.050313264 0.009346239 0.02009654 -0.05154515
0.05289898 0.031214371 0.03833665 -0.037518486 0.05057373 0.014249876 -0.0061435103 0.0034345984
-0.010963939 0.047006063 -0.03685095 0.005112067 0.028341018 -0.024337761 -0.059470564 -0.004860148
-0.03464152 -0.047005817 -0.031361006 -0.029263392 0.040861636 -0.050773337 -0.001186125 -0.018976413
0.017514542 0.03215213 -0.03749036 -0.020374924 -0.00475049 0.03332804 -0.00075511634 0.047852054
0.025319554 -0.0506301 -0.052150823 0.011549957 0.008458987 0.03809663 -0.051989637 0.020126082
-0.034861267 0.019694217 0.048283264 0.047924757 0.034617804 -0.003221415 -0.045348674 0.023040392
0.031540282 -0.022434145 -0.030722119 0.014094241 -0.012868747 0.00013893098 -0.038411833 -0.053990804
-0.031740107 -0.021638334 -0.059490114 0.03776949 -0.008421563 -0.045503512 0.047740318 0.061606295
0.056233145 0.055180304 0.012801878 0.054260023 -0.043243155 0.034842618 -0.025940284 -0.0063954517
-0.024721518 -0.017657124 -0.055764973 0.028951816 0.050345458 -0.04166291 -0.056507997 -0.021032251
-0.041997403 -0.043362476 -0.0046155155 0.026836269 0.014591344 -0.017707005 0.020816617 0.012925863
-0.014272392 -0.04419128 0.02819705 -0.03906867 -0.033536375 0.02124095 -0.016483791 -0.05934789
-0.056202076 0.03299725 0.016643777 0.011156671 0.038150124 -0.042858943 -0.006700076 0.0388826
-0.037095092 -0.017235748 -0.045145474 0.019248314 -0.008799642 -0.007663876 0.0077013597 0.057538852
0.0072327405 0.0011659265 -0.014491841 0.02550707 0.03382565 -0.011717819 -0.03735576 -0.06203513
-0.01887422 0.04541277 0.048159473 -0.04156203 -0.027472898 -0.047848217 0.035209686 -0.04636386
0.005959727 -0.021604694 0.016414464 -0.041578695 -0.004831679 -0.051576436 0.061678715 0.035894573
-0.032697126 0.04143188 -0.0016303062 -0.015581369 0.04861641 0.016009264 -0.029368497 0.045998916
0.003679812 -0.009969518 0.050859727 0.060748234 -0.058633514 0.054967523 -0.054324068 0.03198672
-0.03121037 0.028160334 -0.034351386 0.05410108 0.025787666 -0.040133327 0.0041710287 -0.030590765
0.017736651 0.01523795 0.018334039 0.020486504 0.040814333 0.006781839 0.04959683 -0.036627263
0.012044966 0.019035324 -0.0013271868 -0.019565456 -0.029805794 0.036198504 -0.0011329651 -0.0616915
0.00083717704 0.058729745 0.01293426 0.02305451 -0.041885108 0.05355086 0.005213484 -0.0012058765
0.05581803 -0.061747618 -0.009666145 0.009879388 -0.054624237 -0.035168707 0.02209647 -0.0341195
-0.05483353 -0.030037895 -0.043339476 0.0047689676 -0.011153981 -0.0099104345 -0.055371948 0.059331812
0.030361496 0.019446224 -0.0076077506 0.045190178 -0.051324815 -0.017777681 0.062380753 -0.016365647
0.0035987198 -0.0060065165 0.03292194 -0.015270181 0.045927532 -0.0536433 0.047234803 0.026938535
-0.03190302 0.006976038 0.0049370155 0.009284914 0.015634976 0.027308911 0.031642295 0.05086115
00000000: 743c 8abc 84a1 b2bc 68f4 283d 30ca 163d
00000010: 6458 db3c 70c0 e53b 783e 7bbd 58c0 b6bc
00000020: 027f 503d b80d 96bc f8a0 d9bc 2cdb c63c
00000030: cc4b 173d 42c2 3fbd 8a39 1f3d 1476 04bd
00000040: e4b3 b9bc 8ce6 5dbd f8be 71bd 68d9 0ebd
00000050: 78e2 843c e844 49bd d431 a43c 00e8 b8bb
00000060: 4cc7 c5bc 0699 163d ea62 4b3d da8c 7ebd
00000070: 4815 4ebd f820 193c 80a1 a43c 0221 53bd
00000080: 9aac 583d 48b5 ff3c e406 1d3d fcac 19bd
00000090: 6626 4f3d 5078 693c 804f c9bb 0017 613b
000000a0: 18a2 33bc 6e89 403d 06f1 16bd 2083 a73b
000000b0: 6c2b e83c fc5f c7bc 6897 73bd e041 9fbb
000000c0: 44e4 0dbd 2c89 40bd 6674 00bd c8b9 efbc
000000d0: 885e 273d b4f7 4fbd c077 9bba 6c74 9bbc
000000e0: a87a 8f3c f4b1 033d 7e8f 19bd 50e9 a6bc
000000f0: 00aa 9bbb fc82 083d 00f3 45ba 8400 443d
00000100: f46a cf3c 8261 4fbd 1a9c 55bd 083c 3d3c
00000110: 9097 0a3c 360b 1c3d 16f3 54bd 74df a43c
00000120: b0ca 0ebd c455 a13c acc4 453d c04c 443d
00000130: 66cb 0d3d 601e 53bb 88bf 39bd 34bf bc3c
00000140: 6230 013d d0c7 b7bc f4ac fbbc 88eb 663c
00000150: 70d7 52bc 00ae 1139 ba55 1dbd 7625 5dbd
00000160: ea01 02bd e042 b1bc e8ab 73bd 2eb4 1a3d
00000170: 98fa 09bc e461 3abd 5a8b 433d e256 7c3d
00000180: ba54 663d be04 623d f8be 513c c23f 5e3d
00000190: bc1f 31bd 22b7 0e3d b880 d4bc f090 d1bb
000001a0: c884 cabc aca5 90bc d069 64bd 5c2c ed3c
000001b0: 0a37 4e3d baa6 2abd ee74 67bd d44b acbc
000001c0: 7805 2cbd da9c 31bd c03d 97bb bcd7 db3c
000001d0: 8810 6f3c 480e 91bc 9c87 aa3c 00c7 533c
000001e0: c0d6 69bc ea01 35bd 80fd e63c 7806 20bd
000001f0: 705d 09bd 8001 ae3c 0409 87bc c616 73bd
00000200: 2634 66bd 2028 073d 8858 883c 78ca 363c
00000210: 4e43 1c3d dc8c 2fbd 508c dbbb 5c43 1f3d
00000220: 06f1 17bd fc31 8dbc 76ea 38bd a4ae 9d3c
00000230: 602c 10bc 4021 fbbb b05b fc3b dcad 6b3d
00000240: a000 ed3b 00d2 983a 306f 6dbc 34f4 d03c
00000250: c48c 0a3d 18fc 3fbc 5a02 19bd 8c18 7ebd
00000260: 1c9e 9abc be02 3a3d de42 453d f23c 2abd
00000270: d80e e1bc 7efc 43bd 0838 103d 08e8 3dbd
00000280: d049 c33b 54fc b0bc a077 863c 6c4e 2abd
00000290: 1053 9ebb d041 53bd d2a2 7c3d 3006 133d
000002a0: 6ced 05bd 7ab4 293d 00b0 d5ba 0049 7fbc
000002b0: 0022 473d dc25 833c 3496 f0bc 5c69 3c3d
000002c0: 0029 713b 3057 23bc 4a52 503d 24d3 783d
000002d0: b229 70bd a025 613d ea82 5ebd 8204 033d
000002e0: e4ac ffbc 80b0 e63c 0ab4 0cbd 1899 5d3d
000002f0: a840 d33c d862 24bd 20ad 883b 7c99 fabc
00000300: 744c 913c 98a8 793c 4431 963c 50d3 a73c
00000310: ee2c 273d 303a de3b 0c26 4b3d 7806 16bd
00000320: 4058 453c f8ef 9b3c 00f5 adba bc47 a0bc
00000330: 482b f4bc e244 143d 0080 94ba 3ab0 7cbd
00000340: 0076 5b3a 9a8e 703d 38ea 533c d0dc bc3c
00000350: b88f 2bbd 2658 5b3d e0d5 aa3b 800e 9eba
00000360: 72a1 643d 12eb 7cbd c05e 1ebc 28dd 213c
00000370: aabd 5fbd 100d 10bd a803 b53c e4c0 0bbd
00000380: 2099 60bd 0812 f6bc bc84 31bd 0045 9c3b
00000390: 30bf 36bc 605f 22bc b2cd 62bd ea05 733d
000003a0: acb8 f83c b04d 9f3c 704a f9bb 5619 393d
000003b0: f839 52bd 80a2 91bc f682 7f3d 4011 86bc
000003c0: 80d8 6b3b 50d2 c4bb 28d9 063d c82f 7abc
000003d0: 821e 3c3d 14b9 5bbd 4879 413d 34ae dc3c
000003e0: beac 02bd 4097 e43b b0c6 a13b c01f 183c
000003f0: ec14 803c f0b6 df3c 5a9b 013d c853 503d

network.9.bias f4 [30]
0.04850205 0.046582982 -0.0039507896 0.03306783 -0.055451445 0.04203981 -0.0013857111 -0.012750454
0.023289762 0.027048714 -0.03708931 -0.058977075 0.008758962 0.015619636 -0.057410136 0.06231483
0.035694167 0.035745353 -0.008681826 0.0068077147 -0.04515916 0.060418695 -0.033512622 0.0358293
0.040364347 -0.030875333 -0.02426511 0.041302815 -0.033868484 0.044572756
00000000: 16aa 463d cccd 3e3d a075 81bb 2272 073d
00000010: 0e21 63bd f031 2c3d c0a0 b5ba 48e7 50bc
00000020: 2cca be3c 4495 dd3c f6ea 17bd f291 71bd
00000030: c081 0f3c 80e9 7f3c e426 6bbd d63d 7f3d
00000040: 0c34 123d b869 123d 383e 0ebc 4013 df3b
00000050: d0f8 38bd 9879 773d 8844 09bd bec1 123d
00000060: 1655 253d 44ee fcbc a0c7 c6bc 242d 293d
00000070: aeb9 0abd ec91 363d
